node {
  name: "input"
  op: "Placeholder"
  attr {
    key: "dtype"
    value {
      type: DT_FLOAT
    }
  }
  attr {
    key: "shape"
    value {
      shape {
        dim {
          size: -1
        }
        dim {
          size: 12288
        }
      }
    }
  }
}
node {
  name: "labels_placeholder"
  op: "Placeholder"
  attr {
    key: "dtype"
    value {
      type: DT_INT64
    }
  }
  attr {
    key: "shape"
    value {
      shape {
        dim {
          size: -1
        }
      }
    }
  }
}
node {
  name: "Reshape/shape"
  op: "Const"
  attr {
    key: "dtype"
    value {
      type: DT_INT32
    }
  }
  attr {
    key: "value"
    value {
      tensor {
        dtype: DT_INT32
        tensor_shape {
          dim {
            size: 4
          }
        }
        tensor_content: "\377\377\377\377@\000\000\000@\000\000\000\003\000\000\000"
      }
    }
  }
}
node {
  name: "Reshape"
  op: "Reshape"
  input: "input"
  input: "Reshape/shape"
  attr {
    key: "T"
    value {
      type: DT_FLOAT
    }
  }
  attr {
    key: "Tshape"
    value {
      type: DT_INT32
    }
  }
}
node {
  name: "conv1/truncated_normal/shape"
  op: "Const"
  attr {
    key: "dtype"
    value {
      type: DT_INT32
    }
  }
  attr {
    key: "value"
    value {
      tensor {
        dtype: DT_INT32
        tensor_shape {
          dim {
            size: 4
          }
        }
        tensor_content: "\003\000\000\000\003\000\000\000\003\000\000\000@\000\000\000"
      }
    }
  }
}
node {
  name: "conv1/truncated_normal/mean"
  op: "Const"
  attr {
    key: "dtype"
    value {
      type: DT_FLOAT
    }
  }
  attr {
    key: "value"
    value {
      tensor {
        dtype: DT_FLOAT
        tensor_shape {
        }
        float_val: 0.0
      }
    }
  }
}
node {
  name: "conv1/truncated_normal/stddev"
  op: "Const"
  attr {
    key: "dtype"
    value {
      type: DT_FLOAT
    }
  }
  attr {
    key: "value"
    value {
      tensor {
        dtype: DT_FLOAT
        tensor_shape {
        }
        float_val: 1.0
      }
    }
  }
}
node {
  name: "conv1/truncated_normal/TruncatedNormal"
  op: "TruncatedNormal"
  input: "conv1/truncated_normal/shape"
  attr {
    key: "T"
    value {
      type: DT_INT32
    }
  }
  attr {
    key: "dtype"
    value {
      type: DT_FLOAT
    }
  }
  attr {
    key: "seed"
    value {
      i: 0
    }
  }
  attr {
    key: "seed2"
    value {
      i: 0
    }
  }
}
node {
  name: "conv1/truncated_normal/mul"
  op: "Mul"
  input: "conv1/truncated_normal/TruncatedNormal"
  input: "conv1/truncated_normal/stddev"
  attr {
    key: "T"
    value {
      type: DT_FLOAT
    }
  }
}
node {
  name: "conv1/truncated_normal"
  op: "Add"
  input: "conv1/truncated_normal/mul"
  input: "conv1/truncated_normal/mean"
  attr {
    key: "T"
    value {
      type: DT_FLOAT
    }
  }
}
node {
  name: "conv1/weights"
  op: "VariableV2"
  attr {
    key: "container"
    value {
      s: ""
    }
  }
  attr {
    key: "dtype"
    value {
      type: DT_FLOAT
    }
  }
  attr {
    key: "shape"
    value {
      shape {
        dim {
          size: 3
        }
        dim {
          size: 3
        }
        dim {
          size: 3
        }
        dim {
          size: 64
        }
      }
    }
  }
  attr {
    key: "shared_name"
    value {
      s: ""
    }
  }
}
node {
  name: "conv1/weights/Assign"
  op: "Assign"
  input: "conv1/weights"
  input: "conv1/truncated_normal"
  attr {
    key: "T"
    value {
      type: DT_FLOAT
    }
  }
  attr {
    key: "_class"
    value {
      list {
        s: "loc:@conv1/weights"
      }
    }
  }
  attr {
    key: "use_locking"
    value {
      b: true
    }
  }
  attr {
    key: "validate_shape"
    value {
      b: true
    }
  }
}
node {
  name: "conv1/weights/read"
  op: "Identity"
  input: "conv1/weights"
  attr {
    key: "T"
    value {
      type: DT_FLOAT
    }
  }
  attr {
    key: "_class"
    value {
      list {
        s: "loc:@conv1/weights"
      }
    }
  }
}
node {
  name: "conv1/Const"
  op: "Const"
  attr {
    key: "dtype"
    value {
      type: DT_FLOAT
    }
  }
  attr {
    key: "value"
    value {
      tensor {
        dtype: DT_FLOAT
        tensor_shape {
          dim {
            size: 64
          }
        }
        float_val: 0.10000000149011612
      }
    }
  }
}
node {
  name: "conv1/biases"
  op: "VariableV2"
  attr {
    key: "container"
    value {
      s: ""
    }
  }
  attr {
    key: "dtype"
    value {
      type: DT_FLOAT
    }
  }
  attr {
    key: "shape"
    value {
      shape {
        dim {
          size: 64
        }
      }
    }
  }
  attr {
    key: "shared_name"
    value {
      s: ""
    }
  }
}
node {
  name: "conv1/biases/Assign"
  op: "Assign"
  input: "conv1/biases"
  input: "conv1/Const"
  attr {
    key: "T"
    value {
      type: DT_FLOAT
    }
  }
  attr {
    key: "_class"
    value {
      list {
        s: "loc:@conv1/biases"
      }
    }
  }
  attr {
    key: "use_locking"
    value {
      b: true
    }
  }
  attr {
    key: "validate_shape"
    value {
      b: true
    }
  }
}
node {
  name: "conv1/biases/read"
  op: "Identity"
  input: "conv1/biases"
  attr {
    key: "T"
    value {
      type: DT_FLOAT
    }
  }
  attr {
    key: "_class"
    value {
      list {
        s: "loc:@conv1/biases"
      }
    }
  }
}
node {
  name: "conv1/Conv2D"
  op: "Conv2D"
  input: "Reshape"
  input: "conv1/weights/read"
  attr {
    key: "T"
    value {
      type: DT_FLOAT
    }
  }
  attr {
    key: "data_format"
    value {
      s: "NHWC"
    }
  }
  attr {
    key: "dilations"
    value {
      list {
        i: 1
        i: 1
        i: 1
        i: 1
      }
    }
  }
  attr {
    key: "padding"
    value {
      s: "SAME"
    }
  }
  attr {
    key: "strides"
    value {
      list {
        i: 1
        i: 1
        i: 1
        i: 1
      }
    }
  }
  attr {
    key: "use_cudnn_on_gpu"
    value {
      b: true
    }
  }
}
node {
  name: "conv1/BiasAdd"
  op: "BiasAdd"
  input: "conv1/Conv2D"
  input: "conv1/biases/read"
  attr {
    key: "T"
    value {
      type: DT_FLOAT
    }
  }
  attr {
    key: "data_format"
    value {
      s: "NHWC"
    }
  }
}
node {
  name: "conv1/conv1"
  op: "Relu"
  input: "conv1/BiasAdd"
  attr {
    key: "T"
    value {
      type: DT_FLOAT
    }
  }
}
node {
  name: "pooling1_lrn/pooling1"
  op: "MaxPool"
  input: "conv1/conv1"
  attr {
    key: "T"
    value {
      type: DT_FLOAT
    }
  }
  attr {
    key: "data_format"
    value {
      s: "NHWC"
    }
  }
  attr {
    key: "ksize"
    value {
      list {
        i: 1
        i: 3
        i: 3
        i: 1
      }
    }
  }
  attr {
    key: "padding"
    value {
      s: "SAME"
    }
  }
  attr {
    key: "strides"
    value {
      list {
        i: 1
        i: 2
        i: 2
        i: 1
      }
    }
  }
}
node {
  name: "pooling1_lrn/norm1"
  op: "LRN"
  input: "pooling1_lrn/pooling1"
  attr {
    key: "T"
    value {
      type: DT_FLOAT
    }
  }
  attr {
    key: "alpha"
    value {
      f: 0.00011111111234640703
    }
  }
  attr {
    key: "beta"
    value {
      f: 0.75
    }
  }
  attr {
    key: "bias"
    value {
      f: 1.0
    }
  }
  attr {
    key: "depth_radius"
    value {
      i: 4
    }
  }
}
node {
  name: "conv2/truncated_normal/shape"
  op: "Const"
  attr {
    key: "dtype"
    value {
      type: DT_INT32
    }
  }
  attr {
    key: "value"
    value {
      tensor {
        dtype: DT_INT32
        tensor_shape {
          dim {
            size: 4
          }
        }
        tensor_content: "\003\000\000\000\003\000\000\000@\000\000\000\020\000\000\000"
      }
    }
  }
}
node {
  name: "conv2/truncated_normal/mean"
  op: "Const"
  attr {
    key: "dtype"
    value {
      type: DT_FLOAT
    }
  }
  attr {
    key: "value"
    value {
      tensor {
        dtype: DT_FLOAT
        tensor_shape {
        }
        float_val: 0.0
      }
    }
  }
}
node {
  name: "conv2/truncated_normal/stddev"
  op: "Const"
  attr {
    key: "dtype"
    value {
      type: DT_FLOAT
    }
  }
  attr {
    key: "value"
    value {
      tensor {
        dtype: DT_FLOAT
        tensor_shape {
        }
        float_val: 0.10000000149011612
      }
    }
  }
}
node {
  name: "conv2/truncated_normal/TruncatedNormal"
  op: "TruncatedNormal"
  input: "conv2/truncated_normal/shape"
  attr {
    key: "T"
    value {
      type: DT_INT32
    }
  }
  attr {
    key: "dtype"
    value {
      type: DT_FLOAT
    }
  }
  attr {
    key: "seed"
    value {
      i: 0
    }
  }
  attr {
    key: "seed2"
    value {
      i: 0
    }
  }
}
node {
  name: "conv2/truncated_normal/mul"
  op: "Mul"
  input: "conv2/truncated_normal/TruncatedNormal"
  input: "conv2/truncated_normal/stddev"
  attr {
    key: "T"
    value {
      type: DT_FLOAT
    }
  }
}
node {
  name: "conv2/truncated_normal"
  op: "Add"
  input: "conv2/truncated_normal/mul"
  input: "conv2/truncated_normal/mean"
  attr {
    key: "T"
    value {
      type: DT_FLOAT
    }
  }
}
node {
  name: "conv2/weights"
  op: "VariableV2"
  attr {
    key: "container"
    value {
      s: ""
    }
  }
  attr {
    key: "dtype"
    value {
      type: DT_FLOAT
    }
  }
  attr {
    key: "shape"
    value {
      shape {
        dim {
          size: 3
        }
        dim {
          size: 3
        }
        dim {
          size: 64
        }
        dim {
          size: 16
        }
      }
    }
  }
  attr {
    key: "shared_name"
    value {
      s: ""
    }
  }
}
node {
  name: "conv2/weights/Assign"
  op: "Assign"
  input: "conv2/weights"
  input: "conv2/truncated_normal"
  attr {
    key: "T"
    value {
      type: DT_FLOAT
    }
  }
  attr {
    key: "_class"
    value {
      list {
        s: "loc:@conv2/weights"
      }
    }
  }
  attr {
    key: "use_locking"
    value {
      b: true
    }
  }
  attr {
    key: "validate_shape"
    value {
      b: true
    }
  }
}
node {
  name: "conv2/weights/read"
  op: "Identity"
  input: "conv2/weights"
  attr {
    key: "T"
    value {
      type: DT_FLOAT
    }
  }
  attr {
    key: "_class"
    value {
      list {
        s: "loc:@conv2/weights"
      }
    }
  }
}
node {
  name: "conv2/Const"
  op: "Const"
  attr {
    key: "dtype"
    value {
      type: DT_FLOAT
    }
  }
  attr {
    key: "value"
    value {
      tensor {
        dtype: DT_FLOAT
        tensor_shape {
          dim {
            size: 16
          }
        }
        float_val: 0.10000000149011612
      }
    }
  }
}
node {
  name: "conv2/biases"
  op: "VariableV2"
  attr {
    key: "container"
    value {
      s: ""
    }
  }
  attr {
    key: "dtype"
    value {
      type: DT_FLOAT
    }
  }
  attr {
    key: "shape"
    value {
      shape {
        dim {
          size: 16
        }
      }
    }
  }
  attr {
    key: "shared_name"
    value {
      s: ""
    }
  }
}
node {
  name: "conv2/biases/Assign"
  op: "Assign"
  input: "conv2/biases"
  input: "conv2/Const"
  attr {
    key: "T"
    value {
      type: DT_FLOAT
    }
  }
  attr {
    key: "_class"
    value {
      list {
        s: "loc:@conv2/biases"
      }
    }
  }
  attr {
    key: "use_locking"
    value {
      b: true
    }
  }
  attr {
    key: "validate_shape"
    value {
      b: true
    }
  }
}
node {
  name: "conv2/biases/read"
  op: "Identity"
  input: "conv2/biases"
  attr {
    key: "T"
    value {
      type: DT_FLOAT
    }
  }
  attr {
    key: "_class"
    value {
      list {
        s: "loc:@conv2/biases"
      }
    }
  }
}
node {
  name: "conv2/Conv2D"
  op: "Conv2D"
  input: "pooling1_lrn/norm1"
  input: "conv2/weights/read"
  attr {
    key: "T"
    value {
      type: DT_FLOAT
    }
  }
  attr {
    key: "data_format"
    value {
      s: "NHWC"
    }
  }
  attr {
    key: "dilations"
    value {
      list {
        i: 1
        i: 1
        i: 1
        i: 1
      }
    }
  }
  attr {
    key: "padding"
    value {
      s: "SAME"
    }
  }
  attr {
    key: "strides"
    value {
      list {
        i: 1
        i: 1
        i: 1
        i: 1
      }
    }
  }
  attr {
    key: "use_cudnn_on_gpu"
    value {
      b: true
    }
  }
}
node {
  name: "conv2/BiasAdd"
  op: "BiasAdd"
  input: "conv2/Conv2D"
  input: "conv2/biases/read"
  attr {
    key: "T"
    value {
      type: DT_FLOAT
    }
  }
  attr {
    key: "data_format"
    value {
      s: "NHWC"
    }
  }
}
node {
  name: "conv2/conv2"
  op: "Relu"
  input: "conv2/BiasAdd"
  attr {
    key: "T"
    value {
      type: DT_FLOAT
    }
  }
}
node {
  name: "pooling2_lrn/norm2"
  op: "LRN"
  input: "conv2/conv2"
  attr {
    key: "T"
    value {
      type: DT_FLOAT
    }
  }
  attr {
    key: "alpha"
    value {
      f: 0.00011111111234640703
    }
  }
  attr {
    key: "beta"
    value {
      f: 0.75
    }
  }
  attr {
    key: "bias"
    value {
      f: 1.0
    }
  }
  attr {
    key: "depth_radius"
    value {
      i: 4
    }
  }
}
node {
  name: "pooling2_lrn/pooling2"
  op: "MaxPool"
  input: "pooling2_lrn/norm2"
  attr {
    key: "T"
    value {
      type: DT_FLOAT
    }
  }
  attr {
    key: "data_format"
    value {
      s: "NHWC"
    }
  }
  attr {
    key: "ksize"
    value {
      list {
        i: 1
        i: 3
        i: 3
        i: 1
      }
    }
  }
  attr {
    key: "padding"
    value {
      s: "SAME"
    }
  }
  attr {
    key: "strides"
    value {
      list {
        i: 1
        i: 1
        i: 1
        i: 1
      }
    }
  }
}
node {
  name: "local3/Reshape/shape"
  op: "Const"
  attr {
    key: "dtype"
    value {
      type: DT_INT32
    }
  }
  attr {
    key: "value"
    value {
      tensor {
        dtype: DT_INT32
        tensor_shape {
          dim {
            size: 2
          }
        }
        tensor_content: "\377\377\377\377\000@\000\000"
      }
    }
  }
}
node {
  name: "local3/Reshape"
  op: "Reshape"
  input: "pooling2_lrn/pooling2"
  input: "local3/Reshape/shape"
  attr {
    key: "T"
    value {
      type: DT_FLOAT
    }
  }
  attr {
    key: "Tshape"
    value {
      type: DT_INT32
    }
  }
}
node {
  name: "local3/truncated_normal/shape"
  op: "Const"
  attr {
    key: "dtype"
    value {
      type: DT_INT32
    }
  }
  attr {
    key: "value"
    value {
      tensor {
        dtype: DT_INT32
        tensor_shape {
          dim {
            size: 2
          }
        }
        tensor_content: "\000@\000\000\200\000\000\000"
      }
    }
  }
}
node {
  name: "local3/truncated_normal/mean"
  op: "Const"
  attr {
    key: "dtype"
    value {
      type: DT_FLOAT
    }
  }
  attr {
    key: "value"
    value {
      tensor {
        dtype: DT_FLOAT
        tensor_shape {
        }
        float_val: 0.0
      }
    }
  }
}
node {
  name: "local3/truncated_normal/stddev"
  op: "Const"
  attr {
    key: "dtype"
    value {
      type: DT_FLOAT
    }
  }
  attr {
    key: "value"
    value {
      tensor {
        dtype: DT_FLOAT
        tensor_shape {
        }
        float_val: 0.004999999888241291
      }
    }
  }
}
node {
  name: "local3/truncated_normal/TruncatedNormal"
  op: "TruncatedNormal"
  input: "local3/truncated_normal/shape"
  attr {
    key: "T"
    value {
      type: DT_INT32
    }
  }
  attr {
    key: "dtype"
    value {
      type: DT_FLOAT
    }
  }
  attr {
    key: "seed"
    value {
      i: 0
    }
  }
  attr {
    key: "seed2"
    value {
      i: 0
    }
  }
}
node {
  name: "local3/truncated_normal/mul"
  op: "Mul"
  input: "local3/truncated_normal/TruncatedNormal"
  input: "local3/truncated_normal/stddev"
  attr {
    key: "T"
    value {
      type: DT_FLOAT
    }
  }
}
node {
  name: "local3/truncated_normal"
  op: "Add"
  input: "local3/truncated_normal/mul"
  input: "local3/truncated_normal/mean"
  attr {
    key: "T"
    value {
      type: DT_FLOAT
    }
  }
}
node {
  name: "local3/weights"
  op: "VariableV2"
  attr {
    key: "container"
    value {
      s: ""
    }
  }
  attr {
    key: "dtype"
    value {
      type: DT_FLOAT
    }
  }
  attr {
    key: "shape"
    value {
      shape {
        dim {
          size: 16384
        }
        dim {
          size: 128
        }
      }
    }
  }
  attr {
    key: "shared_name"
    value {
      s: ""
    }
  }
}
node {
  name: "local3/weights/Assign"
  op: "Assign"
  input: "local3/weights"
  input: "local3/truncated_normal"
  attr {
    key: "T"
    value {
      type: DT_FLOAT
    }
  }
  attr {
    key: "_class"
    value {
      list {
        s: "loc:@local3/weights"
      }
    }
  }
  attr {
    key: "use_locking"
    value {
      b: true
    }
  }
  attr {
    key: "validate_shape"
    value {
      b: true
    }
  }
}
node {
  name: "local3/weights/read"
  op: "Identity"
  input: "local3/weights"
  attr {
    key: "T"
    value {
      type: DT_FLOAT
    }
  }
  attr {
    key: "_class"
    value {
      list {
        s: "loc:@local3/weights"
      }
    }
  }
}
node {
  name: "local3/Const"
  op: "Const"
  attr {
    key: "dtype"
    value {
      type: DT_FLOAT
    }
  }
  attr {
    key: "value"
    value {
      tensor {
        dtype: DT_FLOAT
        tensor_shape {
          dim {
            size: 128
          }
        }
        float_val: 0.10000000149011612
      }
    }
  }
}
node {
  name: "local3/biases"
  op: "VariableV2"
  attr {
    key: "container"
    value {
      s: ""
    }
  }
  attr {
    key: "dtype"
    value {
      type: DT_FLOAT
    }
  }
  attr {
    key: "shape"
    value {
      shape {
        dim {
          size: 128
        }
      }
    }
  }
  attr {
    key: "shared_name"
    value {
      s: ""
    }
  }
}
node {
  name: "local3/biases/Assign"
  op: "Assign"
  input: "local3/biases"
  input: "local3/Const"
  attr {
    key: "T"
    value {
      type: DT_FLOAT
    }
  }
  attr {
    key: "_class"
    value {
      list {
        s: "loc:@local3/biases"
      }
    }
  }
  attr {
    key: "use_locking"
    value {
      b: true
    }
  }
  attr {
    key: "validate_shape"
    value {
      b: true
    }
  }
}
node {
  name: "local3/biases/read"
  op: "Identity"
  input: "local3/biases"
  attr {
    key: "T"
    value {
      type: DT_FLOAT
    }
  }
  attr {
    key: "_class"
    value {
      list {
        s: "loc:@local3/biases"
      }
    }
  }
}
node {
  name: "local3/MatMul"
  op: "MatMul"
  input: "local3/Reshape"
  input: "local3/weights/read"
  attr {
    key: "T"
    value {
      type: DT_FLOAT
    }
  }
  attr {
    key: "transpose_a"
    value {
      b: false
    }
  }
  attr {
    key: "transpose_b"
    value {
      b: false
    }
  }
}
node {
  name: "local3/add"
  op: "Add"
  input: "local3/MatMul"
  input: "local3/biases/read"
  attr {
    key: "T"
    value {
      type: DT_FLOAT
    }
  }
}
node {
  name: "local3/local3"
  op: "Relu"
  input: "local3/add"
  attr {
    key: "T"
    value {
      type: DT_FLOAT
    }
  }
}
node {
  name: "local4/truncated_normal/shape"
  op: "Const"
  attr {
    key: "dtype"
    value {
      type: DT_INT32
    }
  }
  attr {
    key: "value"
    value {
      tensor {
        dtype: DT_INT32
        tensor_shape {
          dim {
            size: 2
          }
        }
        tensor_content: "\200\000\000\000\200\000\000\000"
      }
    }
  }
}
node {
  name: "local4/truncated_normal/mean"
  op: "Const"
  attr {
    key: "dtype"
    value {
      type: DT_FLOAT
    }
  }
  attr {
    key: "value"
    value {
      tensor {
        dtype: DT_FLOAT
        tensor_shape {
        }
        float_val: 0.0
      }
    }
  }
}
node {
  name: "local4/truncated_normal/stddev"
  op: "Const"
  attr {
    key: "dtype"
    value {
      type: DT_FLOAT
    }
  }
  attr {
    key: "value"
    value {
      tensor {
        dtype: DT_FLOAT
        tensor_shape {
        }
        float_val: 0.004999999888241291
      }
    }
  }
}
node {
  name: "local4/truncated_normal/TruncatedNormal"
  op: "TruncatedNormal"
  input: "local4/truncated_normal/shape"
  attr {
    key: "T"
    value {
      type: DT_INT32
    }
  }
  attr {
    key: "dtype"
    value {
      type: DT_FLOAT
    }
  }
  attr {
    key: "seed"
    value {
      i: 0
    }
  }
  attr {
    key: "seed2"
    value {
      i: 0
    }
  }
}
node {
  name: "local4/truncated_normal/mul"
  op: "Mul"
  input: "local4/truncated_normal/TruncatedNormal"
  input: "local4/truncated_normal/stddev"
  attr {
    key: "T"
    value {
      type: DT_FLOAT
    }
  }
}
node {
  name: "local4/truncated_normal"
  op: "Add"
  input: "local4/truncated_normal/mul"
  input: "local4/truncated_normal/mean"
  attr {
    key: "T"
    value {
      type: DT_FLOAT
    }
  }
}
node {
  name: "local4/weights"
  op: "VariableV2"
  attr {
    key: "container"
    value {
      s: ""
    }
  }
  attr {
    key: "dtype"
    value {
      type: DT_FLOAT
    }
  }
  attr {
    key: "shape"
    value {
      shape {
        dim {
          size: 128
        }
        dim {
          size: 128
        }
      }
    }
  }
  attr {
    key: "shared_name"
    value {
      s: ""
    }
  }
}
node {
  name: "local4/weights/Assign"
  op: "Assign"
  input: "local4/weights"
  input: "local4/truncated_normal"
  attr {
    key: "T"
    value {
      type: DT_FLOAT
    }
  }
  attr {
    key: "_class"
    value {
      list {
        s: "loc:@local4/weights"
      }
    }
  }
  attr {
    key: "use_locking"
    value {
      b: true
    }
  }
  attr {
    key: "validate_shape"
    value {
      b: true
    }
  }
}
node {
  name: "local4/weights/read"
  op: "Identity"
  input: "local4/weights"
  attr {
    key: "T"
    value {
      type: DT_FLOAT
    }
  }
  attr {
    key: "_class"
    value {
      list {
        s: "loc:@local4/weights"
      }
    }
  }
}
node {
  name: "local4/Const"
  op: "Const"
  attr {
    key: "dtype"
    value {
      type: DT_FLOAT
    }
  }
  attr {
    key: "value"
    value {
      tensor {
        dtype: DT_FLOAT
        tensor_shape {
          dim {
            size: 128
          }
        }
        float_val: 0.10000000149011612
      }
    }
  }
}
node {
  name: "local4/biases"
  op: "VariableV2"
  attr {
    key: "container"
    value {
      s: ""
    }
  }
  attr {
    key: "dtype"
    value {
      type: DT_FLOAT
    }
  }
  attr {
    key: "shape"
    value {
      shape {
        dim {
          size: 128
        }
      }
    }
  }
  attr {
    key: "shared_name"
    value {
      s: ""
    }
  }
}
node {
  name: "local4/biases/Assign"
  op: "Assign"
  input: "local4/biases"
  input: "local4/Const"
  attr {
    key: "T"
    value {
      type: DT_FLOAT
    }
  }
  attr {
    key: "_class"
    value {
      list {
        s: "loc:@local4/biases"
      }
    }
  }
  attr {
    key: "use_locking"
    value {
      b: true
    }
  }
  attr {
    key: "validate_shape"
    value {
      b: true
    }
  }
}
node {
  name: "local4/biases/read"
  op: "Identity"
  input: "local4/biases"
  attr {
    key: "T"
    value {
      type: DT_FLOAT
    }
  }
  attr {
    key: "_class"
    value {
      list {
        s: "loc:@local4/biases"
      }
    }
  }
}
node {
  name: "local4/MatMul"
  op: "MatMul"
  input: "local3/local3"
  input: "local4/weights/read"
  attr {
    key: "T"
    value {
      type: DT_FLOAT
    }
  }
  attr {
    key: "transpose_a"
    value {
      b: false
    }
  }
  attr {
    key: "transpose_b"
    value {
      b: false
    }
  }
}
node {
  name: "local4/add"
  op: "Add"
  input: "local4/MatMul"
  input: "local4/biases/read"
  attr {
    key: "T"
    value {
      type: DT_FLOAT
    }
  }
}
node {
  name: "local4/local4"
  op: "Relu"
  input: "local4/add"
  attr {
    key: "T"
    value {
      type: DT_FLOAT
    }
  }
}
node {
  name: "softmax_linear/truncated_normal/shape"
  op: "Const"
  attr {
    key: "dtype"
    value {
      type: DT_INT32
    }
  }
  attr {
    key: "value"
    value {
      tensor {
        dtype: DT_INT32
        tensor_shape {
          dim {
            size: 2
          }
        }
        tensor_content: "\200\000\000\000\003\000\000\000"
      }
    }
  }
}
node {
  name: "softmax_linear/truncated_normal/mean"
  op: "Const"
  attr {
    key: "dtype"
    value {
      type: DT_FLOAT
    }
  }
  attr {
    key: "value"
    value {
      tensor {
        dtype: DT_FLOAT
        tensor_shape {
        }
        float_val: 0.0
      }
    }
  }
}
node {
  name: "softmax_linear/truncated_normal/stddev"
  op: "Const"
  attr {
    key: "dtype"
    value {
      type: DT_FLOAT
    }
  }
  attr {
    key: "value"
    value {
      tensor {
        dtype: DT_FLOAT
        tensor_shape {
        }
        float_val: 0.004999999888241291
      }
    }
  }
}
node {
  name: "softmax_linear/truncated_normal/TruncatedNormal"
  op: "TruncatedNormal"
  input: "softmax_linear/truncated_normal/shape"
  attr {
    key: "T"
    value {
      type: DT_INT32
    }
  }
  attr {
    key: "dtype"
    value {
      type: DT_FLOAT
    }
  }
  attr {
    key: "seed"
    value {
      i: 0
    }
  }
  attr {
    key: "seed2"
    value {
      i: 0
    }
  }
}
node {
  name: "softmax_linear/truncated_normal/mul"
  op: "Mul"
  input: "softmax_linear/truncated_normal/TruncatedNormal"
  input: "softmax_linear/truncated_normal/stddev"
  attr {
    key: "T"
    value {
      type: DT_FLOAT
    }
  }
}
node {
  name: "softmax_linear/truncated_normal"
  op: "Add"
  input: "softmax_linear/truncated_normal/mul"
  input: "softmax_linear/truncated_normal/mean"
  attr {
    key: "T"
    value {
      type: DT_FLOAT
    }
  }
}
node {
  name: "softmax_linear/softmax_linear"
  op: "VariableV2"
  attr {
    key: "container"
    value {
      s: ""
    }
  }
  attr {
    key: "dtype"
    value {
      type: DT_FLOAT
    }
  }
  attr {
    key: "shape"
    value {
      shape {
        dim {
          size: 128
        }
        dim {
          size: 3
        }
      }
    }
  }
  attr {
    key: "shared_name"
    value {
      s: ""
    }
  }
}
node {
  name: "softmax_linear/softmax_linear/Assign"
  op: "Assign"
  input: "softmax_linear/softmax_linear"
  input: "softmax_linear/truncated_normal"
  attr {
    key: "T"
    value {
      type: DT_FLOAT
    }
  }
  attr {
    key: "_class"
    value {
      list {
        s: "loc:@softmax_linear/softmax_linear"
      }
    }
  }
  attr {
    key: "use_locking"
    value {
      b: true
    }
  }
  attr {
    key: "validate_shape"
    value {
      b: true
    }
  }
}
node {
  name: "softmax_linear/softmax_linear/read"
  op: "Identity"
  input: "softmax_linear/softmax_linear"
  attr {
    key: "T"
    value {
      type: DT_FLOAT
    }
  }
  attr {
    key: "_class"
    value {
      list {
        s: "loc:@softmax_linear/softmax_linear"
      }
    }
  }
}
node {
  name: "softmax_linear/Const"
  op: "Const"
  attr {
    key: "dtype"
    value {
      type: DT_FLOAT
    }
  }
  attr {
    key: "value"
    value {
      tensor {
        dtype: DT_FLOAT
        tensor_shape {
          dim {
            size: 3
          }
        }
        float_val: 0.10000000149011612
      }
    }
  }
}
node {
  name: "softmax_linear/biases"
  op: "VariableV2"
  attr {
    key: "container"
    value {
      s: ""
    }
  }
  attr {
    key: "dtype"
    value {
      type: DT_FLOAT
    }
  }
  attr {
    key: "shape"
    value {
      shape {
        dim {
          size: 3
        }
      }
    }
  }
  attr {
    key: "shared_name"
    value {
      s: ""
    }
  }
}
node {
  name: "softmax_linear/biases/Assign"
  op: "Assign"
  input: "softmax_linear/biases"
  input: "softmax_linear/Const"
  attr {
    key: "T"
    value {
      type: DT_FLOAT
    }
  }
  attr {
    key: "_class"
    value {
      list {
        s: "loc:@softmax_linear/biases"
      }
    }
  }
  attr {
    key: "use_locking"
    value {
      b: true
    }
  }
  attr {
    key: "validate_shape"
    value {
      b: true
    }
  }
}
node {
  name: "softmax_linear/biases/read"
  op: "Identity"
  input: "softmax_linear/biases"
  attr {
    key: "T"
    value {
      type: DT_FLOAT
    }
  }
  attr {
    key: "_class"
    value {
      list {
        s: "loc:@softmax_linear/biases"
      }
    }
  }
}
node {
  name: "softmax_linear/MatMul"
  op: "MatMul"
  input: "local4/local4"
  input: "softmax_linear/softmax_linear/read"
  attr {
    key: "T"
    value {
      type: DT_FLOAT
    }
  }
  attr {
    key: "transpose_a"
    value {
      b: false
    }
  }
  attr {
    key: "transpose_b"
    value {
      b: false
    }
  }
}
node {
  name: "softmax_linear/softmax"
  op: "Add"
  input: "softmax_linear/MatMul"
  input: "softmax_linear/biases/read"
  attr {
    key: "T"
    value {
      type: DT_FLOAT
    }
  }
}
node {
  name: "softmax_linear/output/dimension"
  op: "Const"
  attr {
    key: "dtype"
    value {
      type: DT_INT32
    }
  }
  attr {
    key: "value"
    value {
      tensor {
        dtype: DT_INT32
        tensor_shape {
        }
        int_val: 1
      }
    }
  }
}
node {
  name: "softmax_linear/output"
  op: "ArgMax"
  input: "softmax_linear/softmax"
  input: "softmax_linear/output/dimension"
  attr {
    key: "T"
    value {
      type: DT_FLOAT
    }
  }
  attr {
    key: "Tidx"
    value {
      type: DT_INT32
    }
  }
  attr {
    key: "output_type"
    value {
      type: DT_INT64
    }
  }
}
node {
  name: "Reshape_1/shape"
  op: "Const"
  attr {
    key: "dtype"
    value {
      type: DT_INT32
    }
  }
  attr {
    key: "value"
    value {
      tensor {
        dtype: DT_INT32
        tensor_shape {
          dim {
            size: 1
          }
        }
        int_val: -1
      }
    }
  }
}
node {
  name: "Reshape_1"
  op: "Reshape"
  input: "labels_placeholder"
  input: "Reshape_1/shape"
  attr {
    key: "T"
    value {
      type: DT_INT64
    }
  }
  attr {
    key: "Tshape"
    value {
      type: DT_INT32
    }
  }
}
node {
  name: "loss/xentropy_per_example/Shape"
  op: "Shape"
  input: "labels_placeholder"
  attr {
    key: "T"
    value {
      type: DT_INT64
    }
  }
  attr {
    key: "out_type"
    value {
      type: DT_INT32
    }
  }
}
node {
  name: "loss/xentropy_per_example/xentropy_per_example"
  op: "SparseSoftmaxCrossEntropyWithLogits"
  input: "softmax_linear/softmax"
  input: "labels_placeholder"
  attr {
    key: "T"
    value {
      type: DT_FLOAT
    }
  }
  attr {
    key: "Tlabels"
    value {
      type: DT_INT64
    }
  }
}
node {
  name: "loss/Const"
  op: "Const"
  attr {
    key: "dtype"
    value {
      type: DT_INT32
    }
  }
  attr {
    key: "value"
    value {
      tensor {
        dtype: DT_INT32
        tensor_shape {
          dim {
            size: 1
          }
        }
        int_val: 0
      }
    }
  }
}
node {
  name: "loss/loss"
  op: "Mean"
  input: "loss/xentropy_per_example/xentropy_per_example"
  input: "loss/Const"
  attr {
    key: "T"
    value {
      type: DT_FLOAT
    }
  }
  attr {
    key: "Tidx"
    value {
      type: DT_INT32
    }
  }
  attr {
    key: "keep_dims"
    value {
      b: false
    }
  }
}
node {
  name: "loss/loss/loss/tags"
  op: "Const"
  attr {
    key: "dtype"
    value {
      type: DT_STRING
    }
  }
  attr {
    key: "value"
    value {
      tensor {
        dtype: DT_STRING
        tensor_shape {
        }
        string_val: "loss/loss/loss"
      }
    }
  }
}
node {
  name: "loss/loss/loss"
  op: "ScalarSummary"
  input: "loss/loss/loss/tags"
  input: "loss/loss"
  attr {
    key: "T"
    value {
      type: DT_FLOAT
    }
  }
}
node {
  name: "optimizer/global_step/initial_value"
  op: "Const"
  attr {
    key: "dtype"
    value {
      type: DT_INT32
    }
  }
  attr {
    key: "value"
    value {
      tensor {
        dtype: DT_INT32
        tensor_shape {
        }
        int_val: 0
      }
    }
  }
}
node {
  name: "optimizer/global_step"
  op: "VariableV2"
  attr {
    key: "container"
    value {
      s: ""
    }
  }
  attr {
    key: "dtype"
    value {
      type: DT_INT32
    }
  }
  attr {
    key: "shape"
    value {
      shape {
      }
    }
  }
  attr {
    key: "shared_name"
    value {
      s: ""
    }
  }
}
node {
  name: "optimizer/global_step/Assign"
  op: "Assign"
  input: "optimizer/global_step"
  input: "optimizer/global_step/initial_value"
  attr {
    key: "T"
    value {
      type: DT_INT32
    }
  }
  attr {
    key: "_class"
    value {
      list {
        s: "loc:@optimizer/global_step"
      }
    }
  }
  attr {
    key: "use_locking"
    value {
      b: true
    }
  }
  attr {
    key: "validate_shape"
    value {
      b: true
    }
  }
}
node {
  name: "optimizer/global_step/read"
  op: "Identity"
  input: "optimizer/global_step"
  attr {
    key: "T"
    value {
      type: DT_INT32
    }
  }
  attr {
    key: "_class"
    value {
      list {
        s: "loc:@optimizer/global_step"
      }
    }
  }
}
node {
  name: "optimizer/gradients/Shape"
  op: "Const"
  attr {
    key: "dtype"
    value {
      type: DT_INT32
    }
  }
  attr {
    key: "value"
    value {
      tensor {
        dtype: DT_INT32
        tensor_shape {
          dim {
          }
        }
      }
    }
  }
}
node {
  name: "optimizer/gradients/grad_ys_0"
  op: "Const"
  attr {
    key: "dtype"
    value {
      type: DT_FLOAT
    }
  }
  attr {
    key: "value"
    value {
      tensor {
        dtype: DT_FLOAT
        tensor_shape {
        }
        float_val: 1.0
      }
    }
  }
}
node {
  name: "optimizer/gradients/Fill"
  op: "Fill"
  input: "optimizer/gradients/Shape"
  input: "optimizer/gradients/grad_ys_0"
  attr {
    key: "T"
    value {
      type: DT_FLOAT
    }
  }
  attr {
    key: "index_type"
    value {
      type: DT_INT32
    }
  }
}
node {
  name: "optimizer/gradients/loss/loss_grad/Reshape/shape"
  op: "Const"
  attr {
    key: "dtype"
    value {
      type: DT_INT32
    }
  }
  attr {
    key: "value"
    value {
      tensor {
        dtype: DT_INT32
        tensor_shape {
          dim {
            size: 1
          }
        }
        int_val: 1
      }
    }
  }
}
node {
  name: "optimizer/gradients/loss/loss_grad/Reshape"
  op: "Reshape"
  input: "optimizer/gradients/Fill"
  input: "optimizer/gradients/loss/loss_grad/Reshape/shape"
  attr {
    key: "T"
    value {
      type: DT_FLOAT
    }
  }
  attr {
    key: "Tshape"
    value {
      type: DT_INT32
    }
  }
}
node {
  name: "optimizer/gradients/loss/loss_grad/Shape"
  op: "Shape"
  input: "loss/xentropy_per_example/xentropy_per_example"
  attr {
    key: "T"
    value {
      type: DT_FLOAT
    }
  }
  attr {
    key: "out_type"
    value {
      type: DT_INT32
    }
  }
}
node {
  name: "optimizer/gradients/loss/loss_grad/Tile"
  op: "Tile"
  input: "optimizer/gradients/loss/loss_grad/Reshape"
  input: "optimizer/gradients/loss/loss_grad/Shape"
  attr {
    key: "T"
    value {
      type: DT_FLOAT
    }
  }
  attr {
    key: "Tmultiples"
    value {
      type: DT_INT32
    }
  }
}
node {
  name: "optimizer/gradients/loss/loss_grad/Shape_1"
  op: "Shape"
  input: "loss/xentropy_per_example/xentropy_per_example"
  attr {
    key: "T"
    value {
      type: DT_FLOAT
    }
  }
  attr {
    key: "out_type"
    value {
      type: DT_INT32
    }
  }
}
node {
  name: "optimizer/gradients/loss/loss_grad/Shape_2"
  op: "Const"
  attr {
    key: "dtype"
    value {
      type: DT_INT32
    }
  }
  attr {
    key: "value"
    value {
      tensor {
        dtype: DT_INT32
        tensor_shape {
          dim {
          }
        }
      }
    }
  }
}
node {
  name: "optimizer/gradients/loss/loss_grad/Const"
  op: "Const"
  attr {
    key: "dtype"
    value {
      type: DT_INT32
    }
  }
  attr {
    key: "value"
    value {
      tensor {
        dtype: DT_INT32
        tensor_shape {
          dim {
            size: 1
          }
        }
        int_val: 0
      }
    }
  }
}
node {
  name: "optimizer/gradients/loss/loss_grad/Prod"
  op: "Prod"
  input: "optimizer/gradients/loss/loss_grad/Shape_1"
  input: "optimizer/gradients/loss/loss_grad/Const"
  attr {
    key: "T"
    value {
      type: DT_INT32
    }
  }
  attr {
    key: "Tidx"
    value {
      type: DT_INT32
    }
  }
  attr {
    key: "keep_dims"
    value {
      b: false
    }
  }
}
node {
  name: "optimizer/gradients/loss/loss_grad/Const_1"
  op: "Const"
  attr {
    key: "dtype"
    value {
      type: DT_INT32
    }
  }
  attr {
    key: "value"
    value {
      tensor {
        dtype: DT_INT32
        tensor_shape {
          dim {
            size: 1
          }
        }
        int_val: 0
      }
    }
  }
}
node {
  name: "optimizer/gradients/loss/loss_grad/Prod_1"
  op: "Prod"
  input: "optimizer/gradients/loss/loss_grad/Shape_2"
  input: "optimizer/gradients/loss/loss_grad/Const_1"
  attr {
    key: "T"
    value {
      type: DT_INT32
    }
  }
  attr {
    key: "Tidx"
    value {
      type: DT_INT32
    }
  }
  attr {
    key: "keep_dims"
    value {
      b: false
    }
  }
}
node {
  name: "optimizer/gradients/loss/loss_grad/Maximum/y"
  op: "Const"
  attr {
    key: "dtype"
    value {
      type: DT_INT32
    }
  }
  attr {
    key: "value"
    value {
      tensor {
        dtype: DT_INT32
        tensor_shape {
        }
        int_val: 1
      }
    }
  }
}
node {
  name: "optimizer/gradients/loss/loss_grad/Maximum"
  op: "Maximum"
  input: "optimizer/gradients/loss/loss_grad/Prod_1"
  input: "optimizer/gradients/loss/loss_grad/Maximum/y"
  attr {
    key: "T"
    value {
      type: DT_INT32
    }
  }
}
node {
  name: "optimizer/gradients/loss/loss_grad/floordiv"
  op: "FloorDiv"
  input: "optimizer/gradients/loss/loss_grad/Prod"
  input: "optimizer/gradients/loss/loss_grad/Maximum"
  attr {
    key: "T"
    value {
      type: DT_INT32
    }
  }
}
node {
  name: "optimizer/gradients/loss/loss_grad/Cast"
  op: "Cast"
  input: "optimizer/gradients/loss/loss_grad/floordiv"
  attr {
    key: "DstT"
    value {
      type: DT_FLOAT
    }
  }
  attr {
    key: "SrcT"
    value {
      type: DT_INT32
    }
  }
}
node {
  name: "optimizer/gradients/loss/loss_grad/truediv"
  op: "RealDiv"
  input: "optimizer/gradients/loss/loss_grad/Tile"
  input: "optimizer/gradients/loss/loss_grad/Cast"
  attr {
    key: "T"
    value {
      type: DT_FLOAT
    }
  }
}
node {
  name: "optimizer/gradients/zeros_like"
  op: "ZerosLike"
  input: "loss/xentropy_per_example/xentropy_per_example:1"
  attr {
    key: "T"
    value {
      type: DT_FLOAT
    }
  }
}
node {
  name: "optimizer/gradients/loss/xentropy_per_example/xentropy_per_example_grad/PreventGradient"
  op: "PreventGradient"
  input: "loss/xentropy_per_example/xentropy_per_example:1"
  attr {
    key: "T"
    value {
      type: DT_FLOAT
    }
  }
  attr {
    key: "message"
    value {
      s: "Currently there is no way to take the second derivative of sparse_softmax_cross_entropy_with_logits due to the fused implementation\'s interaction with tf.gradients()"
    }
  }
}
node {
  name: "optimizer/gradients/loss/xentropy_per_example/xentropy_per_example_grad/ExpandDims/dim"
  op: "Const"
  attr {
    key: "dtype"
    value {
      type: DT_INT32
    }
  }
  attr {
    key: "value"
    value {
      tensor {
        dtype: DT_INT32
        tensor_shape {
        }
        int_val: -1
      }
    }
  }
}
node {
  name: "optimizer/gradients/loss/xentropy_per_example/xentropy_per_example_grad/ExpandDims"
  op: "ExpandDims"
  input: "optimizer/gradients/loss/loss_grad/truediv"
  input: "optimizer/gradients/loss/xentropy_per_example/xentropy_per_example_grad/ExpandDims/dim"
  attr {
    key: "T"
    value {
      type: DT_FLOAT
    }
  }
  attr {
    key: "Tdim"
    value {
      type: DT_INT32
    }
  }
}
node {
  name: "optimizer/gradients/loss/xentropy_per_example/xentropy_per_example_grad/mul"
  op: "Mul"
  input: "optimizer/gradients/loss/xentropy_per_example/xentropy_per_example_grad/ExpandDims"
  input: "optimizer/gradients/loss/xentropy_per_example/xentropy_per_example_grad/PreventGradient"
  attr {
    key: "T"
    value {
      type: DT_FLOAT
    }
  }
}
node {
  name: "optimizer/gradients/softmax_linear/softmax_grad/Shape"
  op: "Shape"
  input: "softmax_linear/MatMul"
  attr {
    key: "T"
    value {
      type: DT_FLOAT
    }
  }
  attr {
    key: "out_type"
    value {
      type: DT_INT32
    }
  }
}
node {
  name: "optimizer/gradients/softmax_linear/softmax_grad/Shape_1"
  op: "Const"
  attr {
    key: "dtype"
    value {
      type: DT_INT32
    }
  }
  attr {
    key: "value"
    value {
      tensor {
        dtype: DT_INT32
        tensor_shape {
          dim {
            size: 1
          }
        }
        int_val: 3
      }
    }
  }
}
node {
  name: "optimizer/gradients/softmax_linear/softmax_grad/BroadcastGradientArgs"
  op: "BroadcastGradientArgs"
  input: "optimizer/gradients/softmax_linear/softmax_grad/Shape"
  input: "optimizer/gradients/softmax_linear/softmax_grad/Shape_1"
  attr {
    key: "T"
    value {
      type: DT_INT32
    }
  }
}
node {
  name: "optimizer/gradients/softmax_linear/softmax_grad/Sum"
  op: "Sum"
  input: "optimizer/gradients/loss/xentropy_per_example/xentropy_per_example_grad/mul"
  input: "optimizer/gradients/softmax_linear/softmax_grad/BroadcastGradientArgs"
  attr {
    key: "T"
    value {
      type: DT_FLOAT
    }
  }
  attr {
    key: "Tidx"
    value {
      type: DT_INT32
    }
  }
  attr {
    key: "keep_dims"
    value {
      b: false
    }
  }
}
node {
  name: "optimizer/gradients/softmax_linear/softmax_grad/Reshape"
  op: "Reshape"
  input: "optimizer/gradients/softmax_linear/softmax_grad/Sum"
  input: "optimizer/gradients/softmax_linear/softmax_grad/Shape"
  attr {
    key: "T"
    value {
      type: DT_FLOAT
    }
  }
  attr {
    key: "Tshape"
    value {
      type: DT_INT32
    }
  }
}
node {
  name: "optimizer/gradients/softmax_linear/softmax_grad/Sum_1"
  op: "Sum"
  input: "optimizer/gradients/loss/xentropy_per_example/xentropy_per_example_grad/mul"
  input: "optimizer/gradients/softmax_linear/softmax_grad/BroadcastGradientArgs:1"
  attr {
    key: "T"
    value {
      type: DT_FLOAT
    }
  }
  attr {
    key: "Tidx"
    value {
      type: DT_INT32
    }
  }
  attr {
    key: "keep_dims"
    value {
      b: false
    }
  }
}
node {
  name: "optimizer/gradients/softmax_linear/softmax_grad/Reshape_1"
  op: "Reshape"
  input: "optimizer/gradients/softmax_linear/softmax_grad/Sum_1"
  input: "optimizer/gradients/softmax_linear/softmax_grad/Shape_1"
  attr {
    key: "T"
    value {
      type: DT_FLOAT
    }
  }
  attr {
    key: "Tshape"
    value {
      type: DT_INT32
    }
  }
}
node {
  name: "optimizer/gradients/softmax_linear/softmax_grad/tuple/group_deps"
  op: "NoOp"
  input: "^optimizer/gradients/softmax_linear/softmax_grad/Reshape"
  input: "^optimizer/gradients/softmax_linear/softmax_grad/Reshape_1"
}
node {
  name: "optimizer/gradients/softmax_linear/softmax_grad/tuple/control_dependency"
  op: "Identity"
  input: "optimizer/gradients/softmax_linear/softmax_grad/Reshape"
  input: "^optimizer/gradients/softmax_linear/softmax_grad/tuple/group_deps"
  attr {
    key: "T"
    value {
      type: DT_FLOAT
    }
  }
  attr {
    key: "_class"
    value {
      list {
        s: "loc:@optimizer/gradients/softmax_linear/softmax_grad/Reshape"
      }
    }
  }
}
node {
  name: "optimizer/gradients/softmax_linear/softmax_grad/tuple/control_dependency_1"
  op: "Identity"
  input: "optimizer/gradients/softmax_linear/softmax_grad/Reshape_1"
  input: "^optimizer/gradients/softmax_linear/softmax_grad/tuple/group_deps"
  attr {
    key: "T"
    value {
      type: DT_FLOAT
    }
  }
  attr {
    key: "_class"
    value {
      list {
        s: "loc:@optimizer/gradients/softmax_linear/softmax_grad/Reshape_1"
      }
    }
  }
}
node {
  name: "optimizer/gradients/softmax_linear/MatMul_grad/MatMul"
  op: "MatMul"
  input: "optimizer/gradients/softmax_linear/softmax_grad/tuple/control_dependency"
  input: "softmax_linear/softmax_linear/read"
  attr {
    key: "T"
    value {
      type: DT_FLOAT
    }
  }
  attr {
    key: "transpose_a"
    value {
      b: false
    }
  }
  attr {
    key: "transpose_b"
    value {
      b: true
    }
  }
}
node {
  name: "optimizer/gradients/softmax_linear/MatMul_grad/MatMul_1"
  op: "MatMul"
  input: "local4/local4"
  input: "optimizer/gradients/softmax_linear/softmax_grad/tuple/control_dependency"
  attr {
    key: "T"
    value {
      type: DT_FLOAT
    }
  }
  attr {
    key: "transpose_a"
    value {
      b: true
    }
  }
  attr {
    key: "transpose_b"
    value {
      b: false
    }
  }
}
node {
  name: "optimizer/gradients/softmax_linear/MatMul_grad/tuple/group_deps"
  op: "NoOp"
  input: "^optimizer/gradients/softmax_linear/MatMul_grad/MatMul"
  input: "^optimizer/gradients/softmax_linear/MatMul_grad/MatMul_1"
}
node {
  name: "optimizer/gradients/softmax_linear/MatMul_grad/tuple/control_dependency"
  op: "Identity"
  input: "optimizer/gradients/softmax_linear/MatMul_grad/MatMul"
  input: "^optimizer/gradients/softmax_linear/MatMul_grad/tuple/group_deps"
  attr {
    key: "T"
    value {
      type: DT_FLOAT
    }
  }
  attr {
    key: "_class"
    value {
      list {
        s: "loc:@optimizer/gradients/softmax_linear/MatMul_grad/MatMul"
      }
    }
  }
}
node {
  name: "optimizer/gradients/softmax_linear/MatMul_grad/tuple/control_dependency_1"
  op: "Identity"
  input: "optimizer/gradients/softmax_linear/MatMul_grad/MatMul_1"
  input: "^optimizer/gradients/softmax_linear/MatMul_grad/tuple/group_deps"
  attr {
    key: "T"
    value {
      type: DT_FLOAT
    }
  }
  attr {
    key: "_class"
    value {
      list {
        s: "loc:@optimizer/gradients/softmax_linear/MatMul_grad/MatMul_1"
      }
    }
  }
}
node {
  name: "optimizer/gradients/local4/local4_grad/ReluGrad"
  op: "ReluGrad"
  input: "optimizer/gradients/softmax_linear/MatMul_grad/tuple/control_dependency"
  input: "local4/local4"
  attr {
    key: "T"
    value {
      type: DT_FLOAT
    }
  }
}
node {
  name: "optimizer/gradients/local4/add_grad/Shape"
  op: "Shape"
  input: "local4/MatMul"
  attr {
    key: "T"
    value {
      type: DT_FLOAT
    }
  }
  attr {
    key: "out_type"
    value {
      type: DT_INT32
    }
  }
}
node {
  name: "optimizer/gradients/local4/add_grad/Shape_1"
  op: "Const"
  attr {
    key: "dtype"
    value {
      type: DT_INT32
    }
  }
  attr {
    key: "value"
    value {
      tensor {
        dtype: DT_INT32
        tensor_shape {
          dim {
            size: 1
          }
        }
        int_val: 128
      }
    }
  }
}
node {
  name: "optimizer/gradients/local4/add_grad/BroadcastGradientArgs"
  op: "BroadcastGradientArgs"
  input: "optimizer/gradients/local4/add_grad/Shape"
  input: "optimizer/gradients/local4/add_grad/Shape_1"
  attr {
    key: "T"
    value {
      type: DT_INT32
    }
  }
}
node {
  name: "optimizer/gradients/local4/add_grad/Sum"
  op: "Sum"
  input: "optimizer/gradients/local4/local4_grad/ReluGrad"
  input: "optimizer/gradients/local4/add_grad/BroadcastGradientArgs"
  attr {
    key: "T"
    value {
      type: DT_FLOAT
    }
  }
  attr {
    key: "Tidx"
    value {
      type: DT_INT32
    }
  }
  attr {
    key: "keep_dims"
    value {
      b: false
    }
  }
}
node {
  name: "optimizer/gradients/local4/add_grad/Reshape"
  op: "Reshape"
  input: "optimizer/gradients/local4/add_grad/Sum"
  input: "optimizer/gradients/local4/add_grad/Shape"
  attr {
    key: "T"
    value {
      type: DT_FLOAT
    }
  }
  attr {
    key: "Tshape"
    value {
      type: DT_INT32
    }
  }
}
node {
  name: "optimizer/gradients/local4/add_grad/Sum_1"
  op: "Sum"
  input: "optimizer/gradients/local4/local4_grad/ReluGrad"
  input: "optimizer/gradients/local4/add_grad/BroadcastGradientArgs:1"
  attr {
    key: "T"
    value {
      type: DT_FLOAT
    }
  }
  attr {
    key: "Tidx"
    value {
      type: DT_INT32
    }
  }
  attr {
    key: "keep_dims"
    value {
      b: false
    }
  }
}
node {
  name: "optimizer/gradients/local4/add_grad/Reshape_1"
  op: "Reshape"
  input: "optimizer/gradients/local4/add_grad/Sum_1"
  input: "optimizer/gradients/local4/add_grad/Shape_1"
  attr {
    key: "T"
    value {
      type: DT_FLOAT
    }
  }
  attr {
    key: "Tshape"
    value {
      type: DT_INT32
    }
  }
}
node {
  name: "optimizer/gradients/local4/add_grad/tuple/group_deps"
  op: "NoOp"
  input: "^optimizer/gradients/local4/add_grad/Reshape"
  input: "^optimizer/gradients/local4/add_grad/Reshape_1"
}
node {
  name: "optimizer/gradients/local4/add_grad/tuple/control_dependency"
  op: "Identity"
  input: "optimizer/gradients/local4/add_grad/Reshape"
  input: "^optimizer/gradients/local4/add_grad/tuple/group_deps"
  attr {
    key: "T"
    value {
      type: DT_FLOAT
    }
  }
  attr {
    key: "_class"
    value {
      list {
        s: "loc:@optimizer/gradients/local4/add_grad/Reshape"
      }
    }
  }
}
node {
  name: "optimizer/gradients/local4/add_grad/tuple/control_dependency_1"
  op: "Identity"
  input: "optimizer/gradients/local4/add_grad/Reshape_1"
  input: "^optimizer/gradients/local4/add_grad/tuple/group_deps"
  attr {
    key: "T"
    value {
      type: DT_FLOAT
    }
  }
  attr {
    key: "_class"
    value {
      list {
        s: "loc:@optimizer/gradients/local4/add_grad/Reshape_1"
      }
    }
  }
}
node {
  name: "optimizer/gradients/local4/MatMul_grad/MatMul"
  op: "MatMul"
  input: "optimizer/gradients/local4/add_grad/tuple/control_dependency"
  input: "local4/weights/read"
  attr {
    key: "T"
    value {
      type: DT_FLOAT
    }
  }
  attr {
    key: "transpose_a"
    value {
      b: false
    }
  }
  attr {
    key: "transpose_b"
    value {
      b: true
    }
  }
}
node {
  name: "optimizer/gradients/local4/MatMul_grad/MatMul_1"
  op: "MatMul"
  input: "local3/local3"
  input: "optimizer/gradients/local4/add_grad/tuple/control_dependency"
  attr {
    key: "T"
    value {
      type: DT_FLOAT
    }
  }
  attr {
    key: "transpose_a"
    value {
      b: true
    }
  }
  attr {
    key: "transpose_b"
    value {
      b: false
    }
  }
}
node {
  name: "optimizer/gradients/local4/MatMul_grad/tuple/group_deps"
  op: "NoOp"
  input: "^optimizer/gradients/local4/MatMul_grad/MatMul"
  input: "^optimizer/gradients/local4/MatMul_grad/MatMul_1"
}
node {
  name: "optimizer/gradients/local4/MatMul_grad/tuple/control_dependency"
  op: "Identity"
  input: "optimizer/gradients/local4/MatMul_grad/MatMul"
  input: "^optimizer/gradients/local4/MatMul_grad/tuple/group_deps"
  attr {
    key: "T"
    value {
      type: DT_FLOAT
    }
  }
  attr {
    key: "_class"
    value {
      list {
        s: "loc:@optimizer/gradients/local4/MatMul_grad/MatMul"
      }
    }
  }
}
node {
  name: "optimizer/gradients/local4/MatMul_grad/tuple/control_dependency_1"
  op: "Identity"
  input: "optimizer/gradients/local4/MatMul_grad/MatMul_1"
  input: "^optimizer/gradients/local4/MatMul_grad/tuple/group_deps"
  attr {
    key: "T"
    value {
      type: DT_FLOAT
    }
  }
  attr {
    key: "_class"
    value {
      list {
        s: "loc:@optimizer/gradients/local4/MatMul_grad/MatMul_1"
      }
    }
  }
}
node {
  name: "optimizer/gradients/local3/local3_grad/ReluGrad"
  op: "ReluGrad"
  input: "optimizer/gradients/local4/MatMul_grad/tuple/control_dependency"
  input: "local3/local3"
  attr {
    key: "T"
    value {
      type: DT_FLOAT
    }
  }
}
node {
  name: "optimizer/gradients/local3/add_grad/Shape"
  op: "Shape"
  input: "local3/MatMul"
  attr {
    key: "T"
    value {
      type: DT_FLOAT
    }
  }
  attr {
    key: "out_type"
    value {
      type: DT_INT32
    }
  }
}
node {
  name: "optimizer/gradients/local3/add_grad/Shape_1"
  op: "Const"
  attr {
    key: "dtype"
    value {
      type: DT_INT32
    }
  }
  attr {
    key: "value"
    value {
      tensor {
        dtype: DT_INT32
        tensor_shape {
          dim {
            size: 1
          }
        }
        int_val: 128
      }
    }
  }
}
node {
  name: "optimizer/gradients/local3/add_grad/BroadcastGradientArgs"
  op: "BroadcastGradientArgs"
  input: "optimizer/gradients/local3/add_grad/Shape"
  input: "optimizer/gradients/local3/add_grad/Shape_1"
  attr {
    key: "T"
    value {
      type: DT_INT32
    }
  }
}
node {
  name: "optimizer/gradients/local3/add_grad/Sum"
  op: "Sum"
  input: "optimizer/gradients/local3/local3_grad/ReluGrad"
  input: "optimizer/gradients/local3/add_grad/BroadcastGradientArgs"
  attr {
    key: "T"
    value {
      type: DT_FLOAT
    }
  }
  attr {
    key: "Tidx"
    value {
      type: DT_INT32
    }
  }
  attr {
    key: "keep_dims"
    value {
      b: false
    }
  }
}
node {
  name: "optimizer/gradients/local3/add_grad/Reshape"
  op: "Reshape"
  input: "optimizer/gradients/local3/add_grad/Sum"
  input: "optimizer/gradients/local3/add_grad/Shape"
  attr {
    key: "T"
    value {
      type: DT_FLOAT
    }
  }
  attr {
    key: "Tshape"
    value {
      type: DT_INT32
    }
  }
}
node {
  name: "optimizer/gradients/local3/add_grad/Sum_1"
  op: "Sum"
  input: "optimizer/gradients/local3/local3_grad/ReluGrad"
  input: "optimizer/gradients/local3/add_grad/BroadcastGradientArgs:1"
  attr {
    key: "T"
    value {
      type: DT_FLOAT
    }
  }
  attr {
    key: "Tidx"
    value {
      type: DT_INT32
    }
  }
  attr {
    key: "keep_dims"
    value {
      b: false
    }
  }
}
node {
  name: "optimizer/gradients/local3/add_grad/Reshape_1"
  op: "Reshape"
  input: "optimizer/gradients/local3/add_grad/Sum_1"
  input: "optimizer/gradients/local3/add_grad/Shape_1"
  attr {
    key: "T"
    value {
      type: DT_FLOAT
    }
  }
  attr {
    key: "Tshape"
    value {
      type: DT_INT32
    }
  }
}
node {
  name: "optimizer/gradients/local3/add_grad/tuple/group_deps"
  op: "NoOp"
  input: "^optimizer/gradients/local3/add_grad/Reshape"
  input: "^optimizer/gradients/local3/add_grad/Reshape_1"
}
node {
  name: "optimizer/gradients/local3/add_grad/tuple/control_dependency"
  op: "Identity"
  input: "optimizer/gradients/local3/add_grad/Reshape"
  input: "^optimizer/gradients/local3/add_grad/tuple/group_deps"
  attr {
    key: "T"
    value {
      type: DT_FLOAT
    }
  }
  attr {
    key: "_class"
    value {
      list {
        s: "loc:@optimizer/gradients/local3/add_grad/Reshape"
      }
    }
  }
}
node {
  name: "optimizer/gradients/local3/add_grad/tuple/control_dependency_1"
  op: "Identity"
  input: "optimizer/gradients/local3/add_grad/Reshape_1"
  input: "^optimizer/gradients/local3/add_grad/tuple/group_deps"
  attr {
    key: "T"
    value {
      type: DT_FLOAT
    }
  }
  attr {
    key: "_class"
    value {
      list {
        s: "loc:@optimizer/gradients/local3/add_grad/Reshape_1"
      }
    }
  }
}
node {
  name: "optimizer/gradients/local3/MatMul_grad/MatMul"
  op: "MatMul"
  input: "optimizer/gradients/local3/add_grad/tuple/control_dependency"
  input: "local3/weights/read"
  attr {
    key: "T"
    value {
      type: DT_FLOAT
    }
  }
  attr {
    key: "transpose_a"
    value {
      b: false
    }
  }
  attr {
    key: "transpose_b"
    value {
      b: true
    }
  }
}
node {
  name: "optimizer/gradients/local3/MatMul_grad/MatMul_1"
  op: "MatMul"
  input: "local3/Reshape"
  input: "optimizer/gradients/local3/add_grad/tuple/control_dependency"
  attr {
    key: "T"
    value {
      type: DT_FLOAT
    }
  }
  attr {
    key: "transpose_a"
    value {
      b: true
    }
  }
  attr {
    key: "transpose_b"
    value {
      b: false
    }
  }
}
node {
  name: "optimizer/gradients/local3/MatMul_grad/tuple/group_deps"
  op: "NoOp"
  input: "^optimizer/gradients/local3/MatMul_grad/MatMul"
  input: "^optimizer/gradients/local3/MatMul_grad/MatMul_1"
}
node {
  name: "optimizer/gradients/local3/MatMul_grad/tuple/control_dependency"
  op: "Identity"
  input: "optimizer/gradients/local3/MatMul_grad/MatMul"
  input: "^optimizer/gradients/local3/MatMul_grad/tuple/group_deps"
  attr {
    key: "T"
    value {
      type: DT_FLOAT
    }
  }
  attr {
    key: "_class"
    value {
      list {
        s: "loc:@optimizer/gradients/local3/MatMul_grad/MatMul"
      }
    }
  }
}
node {
  name: "optimizer/gradients/local3/MatMul_grad/tuple/control_dependency_1"
  op: "Identity"
  input: "optimizer/gradients/local3/MatMul_grad/MatMul_1"
  input: "^optimizer/gradients/local3/MatMul_grad/tuple/group_deps"
  attr {
    key: "T"
    value {
      type: DT_FLOAT
    }
  }
  attr {
    key: "_class"
    value {
      list {
        s: "loc:@optimizer/gradients/local3/MatMul_grad/MatMul_1"
      }
    }
  }
}
node {
  name: "optimizer/gradients/local3/Reshape_grad/Shape"
  op: "Shape"
  input: "pooling2_lrn/pooling2"
  attr {
    key: "T"
    value {
      type: DT_FLOAT
    }
  }
  attr {
    key: "out_type"
    value {
      type: DT_INT32
    }
  }
}
node {
  name: "optimizer/gradients/local3/Reshape_grad/Reshape"
  op: "Reshape"
  input: "optimizer/gradients/local3/MatMul_grad/tuple/control_dependency"
  input: "optimizer/gradients/local3/Reshape_grad/Shape"
  attr {
    key: "T"
    value {
      type: DT_FLOAT
    }
  }
  attr {
    key: "Tshape"
    value {
      type: DT_INT32
    }
  }
}
node {
  name: "optimizer/gradients/pooling2_lrn/pooling2_grad/MaxPoolGrad"
  op: "MaxPoolGrad"
  input: "pooling2_lrn/norm2"
  input: "pooling2_lrn/pooling2"
  input: "optimizer/gradients/local3/Reshape_grad/Reshape"
  attr {
    key: "T"
    value {
      type: DT_FLOAT
    }
  }
  attr {
    key: "data_format"
    value {
      s: "NHWC"
    }
  }
  attr {
    key: "ksize"
    value {
      list {
        i: 1
        i: 3
        i: 3
        i: 1
      }
    }
  }
  attr {
    key: "padding"
    value {
      s: "SAME"
    }
  }
  attr {
    key: "strides"
    value {
      list {
        i: 1
        i: 1
        i: 1
        i: 1
      }
    }
  }
}
node {
  name: "optimizer/gradients/pooling2_lrn/norm2_grad/LRNGrad"
  op: "LRNGrad"
  input: "optimizer/gradients/pooling2_lrn/pooling2_grad/MaxPoolGrad"
  input: "conv2/conv2"
  input: "pooling2_lrn/norm2"
  attr {
    key: "T"
    value {
      type: DT_FLOAT
    }
  }
  attr {
    key: "alpha"
    value {
      f: 0.00011111111234640703
    }
  }
  attr {
    key: "beta"
    value {
      f: 0.75
    }
  }
  attr {
    key: "bias"
    value {
      f: 1.0
    }
  }
  attr {
    key: "depth_radius"
    value {
      i: 4
    }
  }
}
node {
  name: "optimizer/gradients/conv2/conv2_grad/ReluGrad"
  op: "ReluGrad"
  input: "optimizer/gradients/pooling2_lrn/norm2_grad/LRNGrad"
  input: "conv2/conv2"
  attr {
    key: "T"
    value {
      type: DT_FLOAT
    }
  }
}
node {
  name: "optimizer/gradients/conv2/BiasAdd_grad/BiasAddGrad"
  op: "BiasAddGrad"
  input: "optimizer/gradients/conv2/conv2_grad/ReluGrad"
  attr {
    key: "T"
    value {
      type: DT_FLOAT
    }
  }
  attr {
    key: "data_format"
    value {
      s: "NHWC"
    }
  }
}
node {
  name: "optimizer/gradients/conv2/BiasAdd_grad/tuple/group_deps"
  op: "NoOp"
  input: "^optimizer/gradients/conv2/BiasAdd_grad/BiasAddGrad"
  input: "^optimizer/gradients/conv2/conv2_grad/ReluGrad"
}
node {
  name: "optimizer/gradients/conv2/BiasAdd_grad/tuple/control_dependency"
  op: "Identity"
  input: "optimizer/gradients/conv2/conv2_grad/ReluGrad"
  input: "^optimizer/gradients/conv2/BiasAdd_grad/tuple/group_deps"
  attr {
    key: "T"
    value {
      type: DT_FLOAT
    }
  }
  attr {
    key: "_class"
    value {
      list {
        s: "loc:@optimizer/gradients/conv2/conv2_grad/ReluGrad"
      }
    }
  }
}
node {
  name: "optimizer/gradients/conv2/BiasAdd_grad/tuple/control_dependency_1"
  op: "Identity"
  input: "optimizer/gradients/conv2/BiasAdd_grad/BiasAddGrad"
  input: "^optimizer/gradients/conv2/BiasAdd_grad/tuple/group_deps"
  attr {
    key: "T"
    value {
      type: DT_FLOAT
    }
  }
  attr {
    key: "_class"
    value {
      list {
        s: "loc:@optimizer/gradients/conv2/BiasAdd_grad/BiasAddGrad"
      }
    }
  }
}
node {
  name: "optimizer/gradients/conv2/Conv2D_grad/ShapeN"
  op: "ShapeN"
  input: "pooling1_lrn/norm1"
  input: "conv2/weights/read"
  attr {
    key: "N"
    value {
      i: 2
    }
  }
  attr {
    key: "T"
    value {
      type: DT_FLOAT
    }
  }
  attr {
    key: "out_type"
    value {
      type: DT_INT32
    }
  }
}
node {
  name: "optimizer/gradients/conv2/Conv2D_grad/Const"
  op: "Const"
  attr {
    key: "dtype"
    value {
      type: DT_INT32
    }
  }
  attr {
    key: "value"
    value {
      tensor {
        dtype: DT_INT32
        tensor_shape {
          dim {
            size: 4
          }
        }
        tensor_content: "\003\000\000\000\003\000\000\000@\000\000\000\020\000\000\000"
      }
    }
  }
}
node {
  name: "optimizer/gradients/conv2/Conv2D_grad/Conv2DBackpropInput"
  op: "Conv2DBackpropInput"
  input: "optimizer/gradients/conv2/Conv2D_grad/ShapeN"
  input: "conv2/weights/read"
  input: "optimizer/gradients/conv2/BiasAdd_grad/tuple/control_dependency"
  attr {
    key: "T"
    value {
      type: DT_FLOAT
    }
  }
  attr {
    key: "data_format"
    value {
      s: "NHWC"
    }
  }
  attr {
    key: "dilations"
    value {
      list {
        i: 1
        i: 1
        i: 1
        i: 1
      }
    }
  }
  attr {
    key: "padding"
    value {
      s: "SAME"
    }
  }
  attr {
    key: "strides"
    value {
      list {
        i: 1
        i: 1
        i: 1
        i: 1
      }
    }
  }
  attr {
    key: "use_cudnn_on_gpu"
    value {
      b: true
    }
  }
}
node {
  name: "optimizer/gradients/conv2/Conv2D_grad/Conv2DBackpropFilter"
  op: "Conv2DBackpropFilter"
  input: "pooling1_lrn/norm1"
  input: "optimizer/gradients/conv2/Conv2D_grad/Const"
  input: "optimizer/gradients/conv2/BiasAdd_grad/tuple/control_dependency"
  attr {
    key: "T"
    value {
      type: DT_FLOAT
    }
  }
  attr {
    key: "data_format"
    value {
      s: "NHWC"
    }
  }
  attr {
    key: "dilations"
    value {
      list {
        i: 1
        i: 1
        i: 1
        i: 1
      }
    }
  }
  attr {
    key: "padding"
    value {
      s: "SAME"
    }
  }
  attr {
    key: "strides"
    value {
      list {
        i: 1
        i: 1
        i: 1
        i: 1
      }
    }
  }
  attr {
    key: "use_cudnn_on_gpu"
    value {
      b: true
    }
  }
}
node {
  name: "optimizer/gradients/conv2/Conv2D_grad/tuple/group_deps"
  op: "NoOp"
  input: "^optimizer/gradients/conv2/Conv2D_grad/Conv2DBackpropFilter"
  input: "^optimizer/gradients/conv2/Conv2D_grad/Conv2DBackpropInput"
}
node {
  name: "optimizer/gradients/conv2/Conv2D_grad/tuple/control_dependency"
  op: "Identity"
  input: "optimizer/gradients/conv2/Conv2D_grad/Conv2DBackpropInput"
  input: "^optimizer/gradients/conv2/Conv2D_grad/tuple/group_deps"
  attr {
    key: "T"
    value {
      type: DT_FLOAT
    }
  }
  attr {
    key: "_class"
    value {
      list {
        s: "loc:@optimizer/gradients/conv2/Conv2D_grad/Conv2DBackpropInput"
      }
    }
  }
}
node {
  name: "optimizer/gradients/conv2/Conv2D_grad/tuple/control_dependency_1"
  op: "Identity"
  input: "optimizer/gradients/conv2/Conv2D_grad/Conv2DBackpropFilter"
  input: "^optimizer/gradients/conv2/Conv2D_grad/tuple/group_deps"
  attr {
    key: "T"
    value {
      type: DT_FLOAT
    }
  }
  attr {
    key: "_class"
    value {
      list {
        s: "loc:@optimizer/gradients/conv2/Conv2D_grad/Conv2DBackpropFilter"
      }
    }
  }
}
node {
  name: "optimizer/gradients/pooling1_lrn/norm1_grad/LRNGrad"
  op: "LRNGrad"
  input: "optimizer/gradients/conv2/Conv2D_grad/tuple/control_dependency"
  input: "pooling1_lrn/pooling1"
  input: "pooling1_lrn/norm1"
  attr {
    key: "T"
    value {
      type: DT_FLOAT
    }
  }
  attr {
    key: "alpha"
    value {
      f: 0.00011111111234640703
    }
  }
  attr {
    key: "beta"
    value {
      f: 0.75
    }
  }
  attr {
    key: "bias"
    value {
      f: 1.0
    }
  }
  attr {
    key: "depth_radius"
    value {
      i: 4
    }
  }
}
node {
  name: "optimizer/gradients/pooling1_lrn/pooling1_grad/MaxPoolGrad"
  op: "MaxPoolGrad"
  input: "conv1/conv1"
  input: "pooling1_lrn/pooling1"
  input: "optimizer/gradients/pooling1_lrn/norm1_grad/LRNGrad"
  attr {
    key: "T"
    value {
      type: DT_FLOAT
    }
  }
  attr {
    key: "data_format"
    value {
      s: "NHWC"
    }
  }
  attr {
    key: "ksize"
    value {
      list {
        i: 1
        i: 3
        i: 3
        i: 1
      }
    }
  }
  attr {
    key: "padding"
    value {
      s: "SAME"
    }
  }
  attr {
    key: "strides"
    value {
      list {
        i: 1
        i: 2
        i: 2
        i: 1
      }
    }
  }
}
node {
  name: "optimizer/gradients/conv1/conv1_grad/ReluGrad"
  op: "ReluGrad"
  input: "optimizer/gradients/pooling1_lrn/pooling1_grad/MaxPoolGrad"
  input: "conv1/conv1"
  attr {
    key: "T"
    value {
      type: DT_FLOAT
    }
  }
}
node {
  name: "optimizer/gradients/conv1/BiasAdd_grad/BiasAddGrad"
  op: "BiasAddGrad"
  input: "optimizer/gradients/conv1/conv1_grad/ReluGrad"
  attr {
    key: "T"
    value {
      type: DT_FLOAT
    }
  }
  attr {
    key: "data_format"
    value {
      s: "NHWC"
    }
  }
}
node {
  name: "optimizer/gradients/conv1/BiasAdd_grad/tuple/group_deps"
  op: "NoOp"
  input: "^optimizer/gradients/conv1/BiasAdd_grad/BiasAddGrad"
  input: "^optimizer/gradients/conv1/conv1_grad/ReluGrad"
}
node {
  name: "optimizer/gradients/conv1/BiasAdd_grad/tuple/control_dependency"
  op: "Identity"
  input: "optimizer/gradients/conv1/conv1_grad/ReluGrad"
  input: "^optimizer/gradients/conv1/BiasAdd_grad/tuple/group_deps"
  attr {
    key: "T"
    value {
      type: DT_FLOAT
    }
  }
  attr {
    key: "_class"
    value {
      list {
        s: "loc:@optimizer/gradients/conv1/conv1_grad/ReluGrad"
      }
    }
  }
}
node {
  name: "optimizer/gradients/conv1/BiasAdd_grad/tuple/control_dependency_1"
  op: "Identity"
  input: "optimizer/gradients/conv1/BiasAdd_grad/BiasAddGrad"
  input: "^optimizer/gradients/conv1/BiasAdd_grad/tuple/group_deps"
  attr {
    key: "T"
    value {
      type: DT_FLOAT
    }
  }
  attr {
    key: "_class"
    value {
      list {
        s: "loc:@optimizer/gradients/conv1/BiasAdd_grad/BiasAddGrad"
      }
    }
  }
}
node {
  name: "optimizer/gradients/conv1/Conv2D_grad/ShapeN"
  op: "ShapeN"
  input: "Reshape"
  input: "conv1/weights/read"
  attr {
    key: "N"
    value {
      i: 2
    }
  }
  attr {
    key: "T"
    value {
      type: DT_FLOAT
    }
  }
  attr {
    key: "out_type"
    value {
      type: DT_INT32
    }
  }
}
node {
  name: "optimizer/gradients/conv1/Conv2D_grad/Const"
  op: "Const"
  attr {
    key: "dtype"
    value {
      type: DT_INT32
    }
  }
  attr {
    key: "value"
    value {
      tensor {
        dtype: DT_INT32
        tensor_shape {
          dim {
            size: 4
          }
        }
        tensor_content: "\003\000\000\000\003\000\000\000\003\000\000\000@\000\000\000"
      }
    }
  }
}
node {
  name: "optimizer/gradients/conv1/Conv2D_grad/Conv2DBackpropInput"
  op: "Conv2DBackpropInput"
  input: "optimizer/gradients/conv1/Conv2D_grad/ShapeN"
  input: "conv1/weights/read"
  input: "optimizer/gradients/conv1/BiasAdd_grad/tuple/control_dependency"
  attr {
    key: "T"
    value {
      type: DT_FLOAT
    }
  }
  attr {
    key: "data_format"
    value {
      s: "NHWC"
    }
  }
  attr {
    key: "dilations"
    value {
      list {
        i: 1
        i: 1
        i: 1
        i: 1
      }
    }
  }
  attr {
    key: "padding"
    value {
      s: "SAME"
    }
  }
  attr {
    key: "strides"
    value {
      list {
        i: 1
        i: 1
        i: 1
        i: 1
      }
    }
  }
  attr {
    key: "use_cudnn_on_gpu"
    value {
      b: true
    }
  }
}
node {
  name: "optimizer/gradients/conv1/Conv2D_grad/Conv2DBackpropFilter"
  op: "Conv2DBackpropFilter"
  input: "Reshape"
  input: "optimizer/gradients/conv1/Conv2D_grad/Const"
  input: "optimizer/gradients/conv1/BiasAdd_grad/tuple/control_dependency"
  attr {
    key: "T"
    value {
      type: DT_FLOAT
    }
  }
  attr {
    key: "data_format"
    value {
      s: "NHWC"
    }
  }
  attr {
    key: "dilations"
    value {
      list {
        i: 1
        i: 1
        i: 1
        i: 1
      }
    }
  }
  attr {
    key: "padding"
    value {
      s: "SAME"
    }
  }
  attr {
    key: "strides"
    value {
      list {
        i: 1
        i: 1
        i: 1
        i: 1
      }
    }
  }
  attr {
    key: "use_cudnn_on_gpu"
    value {
      b: true
    }
  }
}
node {
  name: "optimizer/gradients/conv1/Conv2D_grad/tuple/group_deps"
  op: "NoOp"
  input: "^optimizer/gradients/conv1/Conv2D_grad/Conv2DBackpropFilter"
  input: "^optimizer/gradients/conv1/Conv2D_grad/Conv2DBackpropInput"
}
node {
  name: "optimizer/gradients/conv1/Conv2D_grad/tuple/control_dependency"
  op: "Identity"
  input: "optimizer/gradients/conv1/Conv2D_grad/Conv2DBackpropInput"
  input: "^optimizer/gradients/conv1/Conv2D_grad/tuple/group_deps"
  attr {
    key: "T"
    value {
      type: DT_FLOAT
    }
  }
  attr {
    key: "_class"
    value {
      list {
        s: "loc:@optimizer/gradients/conv1/Conv2D_grad/Conv2DBackpropInput"
      }
    }
  }
}
node {
  name: "optimizer/gradients/conv1/Conv2D_grad/tuple/control_dependency_1"
  op: "Identity"
  input: "optimizer/gradients/conv1/Conv2D_grad/Conv2DBackpropFilter"
  input: "^optimizer/gradients/conv1/Conv2D_grad/tuple/group_deps"
  attr {
    key: "T"
    value {
      type: DT_FLOAT
    }
  }
  attr {
    key: "_class"
    value {
      list {
        s: "loc:@optimizer/gradients/conv1/Conv2D_grad/Conv2DBackpropFilter"
      }
    }
  }
}
node {
  name: "optimizer/beta1_power/initial_value"
  op: "Const"
  attr {
    key: "_class"
    value {
      list {
        s: "loc:@conv1/biases"
      }
    }
  }
  attr {
    key: "dtype"
    value {
      type: DT_FLOAT
    }
  }
  attr {
    key: "value"
    value {
      tensor {
        dtype: DT_FLOAT
        tensor_shape {
        }
        float_val: 0.8999999761581421
      }
    }
  }
}
node {
  name: "optimizer/beta1_power"
  op: "VariableV2"
  attr {
    key: "_class"
    value {
      list {
        s: "loc:@conv1/biases"
      }
    }
  }
  attr {
    key: "container"
    value {
      s: ""
    }
  }
  attr {
    key: "dtype"
    value {
      type: DT_FLOAT
    }
  }
  attr {
    key: "shape"
    value {
      shape {
      }
    }
  }
  attr {
    key: "shared_name"
    value {
      s: ""
    }
  }
}
node {
  name: "optimizer/beta1_power/Assign"
  op: "Assign"
  input: "optimizer/beta1_power"
  input: "optimizer/beta1_power/initial_value"
  attr {
    key: "T"
    value {
      type: DT_FLOAT
    }
  }
  attr {
    key: "_class"
    value {
      list {
        s: "loc:@conv1/biases"
      }
    }
  }
  attr {
    key: "use_locking"
    value {
      b: true
    }
  }
  attr {
    key: "validate_shape"
    value {
      b: true
    }
  }
}
node {
  name: "optimizer/beta1_power/read"
  op: "Identity"
  input: "optimizer/beta1_power"
  attr {
    key: "T"
    value {
      type: DT_FLOAT
    }
  }
  attr {
    key: "_class"
    value {
      list {
        s: "loc:@conv1/biases"
      }
    }
  }
}
node {
  name: "optimizer/beta2_power/initial_value"
  op: "Const"
  attr {
    key: "_class"
    value {
      list {
        s: "loc:@conv1/biases"
      }
    }
  }
  attr {
    key: "dtype"
    value {
      type: DT_FLOAT
    }
  }
  attr {
    key: "value"
    value {
      tensor {
        dtype: DT_FLOAT
        tensor_shape {
        }
        float_val: 0.9990000128746033
      }
    }
  }
}
node {
  name: "optimizer/beta2_power"
  op: "VariableV2"
  attr {
    key: "_class"
    value {
      list {
        s: "loc:@conv1/biases"
      }
    }
  }
  attr {
    key: "container"
    value {
      s: ""
    }
  }
  attr {
    key: "dtype"
    value {
      type: DT_FLOAT
    }
  }
  attr {
    key: "shape"
    value {
      shape {
      }
    }
  }
  attr {
    key: "shared_name"
    value {
      s: ""
    }
  }
}
node {
  name: "optimizer/beta2_power/Assign"
  op: "Assign"
  input: "optimizer/beta2_power"
  input: "optimizer/beta2_power/initial_value"
  attr {
    key: "T"
    value {
      type: DT_FLOAT
    }
  }
  attr {
    key: "_class"
    value {
      list {
        s: "loc:@conv1/biases"
      }
    }
  }
  attr {
    key: "use_locking"
    value {
      b: true
    }
  }
  attr {
    key: "validate_shape"
    value {
      b: true
    }
  }
}
node {
  name: "optimizer/beta2_power/read"
  op: "Identity"
  input: "optimizer/beta2_power"
  attr {
    key: "T"
    value {
      type: DT_FLOAT
    }
  }
  attr {
    key: "_class"
    value {
      list {
        s: "loc:@conv1/biases"
      }
    }
  }
}
node {
  name: "conv1/weights/Adam/Initializer/zeros/shape_as_tensor"
  op: "Const"
  attr {
    key: "_class"
    value {
      list {
        s: "loc:@conv1/weights"
      }
    }
  }
  attr {
    key: "dtype"
    value {
      type: DT_INT32
    }
  }
  attr {
    key: "value"
    value {
      tensor {
        dtype: DT_INT32
        tensor_shape {
          dim {
            size: 4
          }
        }
        tensor_content: "\003\000\000\000\003\000\000\000\003\000\000\000@\000\000\000"
      }
    }
  }
}
node {
  name: "conv1/weights/Adam/Initializer/zeros/Const"
  op: "Const"
  attr {
    key: "_class"
    value {
      list {
        s: "loc:@conv1/weights"
      }
    }
  }
  attr {
    key: "dtype"
    value {
      type: DT_FLOAT
    }
  }
  attr {
    key: "value"
    value {
      tensor {
        dtype: DT_FLOAT
        tensor_shape {
        }
        float_val: 0.0
      }
    }
  }
}
node {
  name: "conv1/weights/Adam/Initializer/zeros"
  op: "Fill"
  input: "conv1/weights/Adam/Initializer/zeros/shape_as_tensor"
  input: "conv1/weights/Adam/Initializer/zeros/Const"
  attr {
    key: "T"
    value {
      type: DT_FLOAT
    }
  }
  attr {
    key: "_class"
    value {
      list {
        s: "loc:@conv1/weights"
      }
    }
  }
  attr {
    key: "index_type"
    value {
      type: DT_INT32
    }
  }
}
node {
  name: "conv1/weights/Adam"
  op: "VariableV2"
  attr {
    key: "_class"
    value {
      list {
        s: "loc:@conv1/weights"
      }
    }
  }
  attr {
    key: "container"
    value {
      s: ""
    }
  }
  attr {
    key: "dtype"
    value {
      type: DT_FLOAT
    }
  }
  attr {
    key: "shape"
    value {
      shape {
        dim {
          size: 3
        }
        dim {
          size: 3
        }
        dim {
          size: 3
        }
        dim {
          size: 64
        }
      }
    }
  }
  attr {
    key: "shared_name"
    value {
      s: ""
    }
  }
}
node {
  name: "conv1/weights/Adam/Assign"
  op: "Assign"
  input: "conv1/weights/Adam"
  input: "conv1/weights/Adam/Initializer/zeros"
  attr {
    key: "T"
    value {
      type: DT_FLOAT
    }
  }
  attr {
    key: "_class"
    value {
      list {
        s: "loc:@conv1/weights"
      }
    }
  }
  attr {
    key: "use_locking"
    value {
      b: true
    }
  }
  attr {
    key: "validate_shape"
    value {
      b: true
    }
  }
}
node {
  name: "conv1/weights/Adam/read"
  op: "Identity"
  input: "conv1/weights/Adam"
  attr {
    key: "T"
    value {
      type: DT_FLOAT
    }
  }
  attr {
    key: "_class"
    value {
      list {
        s: "loc:@conv1/weights"
      }
    }
  }
}
node {
  name: "conv1/weights/Adam_1/Initializer/zeros/shape_as_tensor"
  op: "Const"
  attr {
    key: "_class"
    value {
      list {
        s: "loc:@conv1/weights"
      }
    }
  }
  attr {
    key: "dtype"
    value {
      type: DT_INT32
    }
  }
  attr {
    key: "value"
    value {
      tensor {
        dtype: DT_INT32
        tensor_shape {
          dim {
            size: 4
          }
        }
        tensor_content: "\003\000\000\000\003\000\000\000\003\000\000\000@\000\000\000"
      }
    }
  }
}
node {
  name: "conv1/weights/Adam_1/Initializer/zeros/Const"
  op: "Const"
  attr {
    key: "_class"
    value {
      list {
        s: "loc:@conv1/weights"
      }
    }
  }
  attr {
    key: "dtype"
    value {
      type: DT_FLOAT
    }
  }
  attr {
    key: "value"
    value {
      tensor {
        dtype: DT_FLOAT
        tensor_shape {
        }
        float_val: 0.0
      }
    }
  }
}
node {
  name: "conv1/weights/Adam_1/Initializer/zeros"
  op: "Fill"
  input: "conv1/weights/Adam_1/Initializer/zeros/shape_as_tensor"
  input: "conv1/weights/Adam_1/Initializer/zeros/Const"
  attr {
    key: "T"
    value {
      type: DT_FLOAT
    }
  }
  attr {
    key: "_class"
    value {
      list {
        s: "loc:@conv1/weights"
      }
    }
  }
  attr {
    key: "index_type"
    value {
      type: DT_INT32
    }
  }
}
node {
  name: "conv1/weights/Adam_1"
  op: "VariableV2"
  attr {
    key: "_class"
    value {
      list {
        s: "loc:@conv1/weights"
      }
    }
  }
  attr {
    key: "container"
    value {
      s: ""
    }
  }
  attr {
    key: "dtype"
    value {
      type: DT_FLOAT
    }
  }
  attr {
    key: "shape"
    value {
      shape {
        dim {
          size: 3
        }
        dim {
          size: 3
        }
        dim {
          size: 3
        }
        dim {
          size: 64
        }
      }
    }
  }
  attr {
    key: "shared_name"
    value {
      s: ""
    }
  }
}
node {
  name: "conv1/weights/Adam_1/Assign"
  op: "Assign"
  input: "conv1/weights/Adam_1"
  input: "conv1/weights/Adam_1/Initializer/zeros"
  attr {
    key: "T"
    value {
      type: DT_FLOAT
    }
  }
  attr {
    key: "_class"
    value {
      list {
        s: "loc:@conv1/weights"
      }
    }
  }
  attr {
    key: "use_locking"
    value {
      b: true
    }
  }
  attr {
    key: "validate_shape"
    value {
      b: true
    }
  }
}
node {
  name: "conv1/weights/Adam_1/read"
  op: "Identity"
  input: "conv1/weights/Adam_1"
  attr {
    key: "T"
    value {
      type: DT_FLOAT
    }
  }
  attr {
    key: "_class"
    value {
      list {
        s: "loc:@conv1/weights"
      }
    }
  }
}
node {
  name: "conv1/biases/Adam/Initializer/zeros"
  op: "Const"
  attr {
    key: "_class"
    value {
      list {
        s: "loc:@conv1/biases"
      }
    }
  }
  attr {
    key: "dtype"
    value {
      type: DT_FLOAT
    }
  }
  attr {
    key: "value"
    value {
      tensor {
        dtype: DT_FLOAT
        tensor_shape {
          dim {
            size: 64
          }
        }
        float_val: 0.0
      }
    }
  }
}
node {
  name: "conv1/biases/Adam"
  op: "VariableV2"
  attr {
    key: "_class"
    value {
      list {
        s: "loc:@conv1/biases"
      }
    }
  }
  attr {
    key: "container"
    value {
      s: ""
    }
  }
  attr {
    key: "dtype"
    value {
      type: DT_FLOAT
    }
  }
  attr {
    key: "shape"
    value {
      shape {
        dim {
          size: 64
        }
      }
    }
  }
  attr {
    key: "shared_name"
    value {
      s: ""
    }
  }
}
node {
  name: "conv1/biases/Adam/Assign"
  op: "Assign"
  input: "conv1/biases/Adam"
  input: "conv1/biases/Adam/Initializer/zeros"
  attr {
    key: "T"
    value {
      type: DT_FLOAT
    }
  }
  attr {
    key: "_class"
    value {
      list {
        s: "loc:@conv1/biases"
      }
    }
  }
  attr {
    key: "use_locking"
    value {
      b: true
    }
  }
  attr {
    key: "validate_shape"
    value {
      b: true
    }
  }
}
node {
  name: "conv1/biases/Adam/read"
  op: "Identity"
  input: "conv1/biases/Adam"
  attr {
    key: "T"
    value {
      type: DT_FLOAT
    }
  }
  attr {
    key: "_class"
    value {
      list {
        s: "loc:@conv1/biases"
      }
    }
  }
}
node {
  name: "conv1/biases/Adam_1/Initializer/zeros"
  op: "Const"
  attr {
    key: "_class"
    value {
      list {
        s: "loc:@conv1/biases"
      }
    }
  }
  attr {
    key: "dtype"
    value {
      type: DT_FLOAT
    }
  }
  attr {
    key: "value"
    value {
      tensor {
        dtype: DT_FLOAT
        tensor_shape {
          dim {
            size: 64
          }
        }
        float_val: 0.0
      }
    }
  }
}
node {
  name: "conv1/biases/Adam_1"
  op: "VariableV2"
  attr {
    key: "_class"
    value {
      list {
        s: "loc:@conv1/biases"
      }
    }
  }
  attr {
    key: "container"
    value {
      s: ""
    }
  }
  attr {
    key: "dtype"
    value {
      type: DT_FLOAT
    }
  }
  attr {
    key: "shape"
    value {
      shape {
        dim {
          size: 64
        }
      }
    }
  }
  attr {
    key: "shared_name"
    value {
      s: ""
    }
  }
}
node {
  name: "conv1/biases/Adam_1/Assign"
  op: "Assign"
  input: "conv1/biases/Adam_1"
  input: "conv1/biases/Adam_1/Initializer/zeros"
  attr {
    key: "T"
    value {
      type: DT_FLOAT
    }
  }
  attr {
    key: "_class"
    value {
      list {
        s: "loc:@conv1/biases"
      }
    }
  }
  attr {
    key: "use_locking"
    value {
      b: true
    }
  }
  attr {
    key: "validate_shape"
    value {
      b: true
    }
  }
}
node {
  name: "conv1/biases/Adam_1/read"
  op: "Identity"
  input: "conv1/biases/Adam_1"
  attr {
    key: "T"
    value {
      type: DT_FLOAT
    }
  }
  attr {
    key: "_class"
    value {
      list {
        s: "loc:@conv1/biases"
      }
    }
  }
}
node {
  name: "conv2/weights/Adam/Initializer/zeros/shape_as_tensor"
  op: "Const"
  attr {
    key: "_class"
    value {
      list {
        s: "loc:@conv2/weights"
      }
    }
  }
  attr {
    key: "dtype"
    value {
      type: DT_INT32
    }
  }
  attr {
    key: "value"
    value {
      tensor {
        dtype: DT_INT32
        tensor_shape {
          dim {
            size: 4
          }
        }
        tensor_content: "\003\000\000\000\003\000\000\000@\000\000\000\020\000\000\000"
      }
    }
  }
}
node {
  name: "conv2/weights/Adam/Initializer/zeros/Const"
  op: "Const"
  attr {
    key: "_class"
    value {
      list {
        s: "loc:@conv2/weights"
      }
    }
  }
  attr {
    key: "dtype"
    value {
      type: DT_FLOAT
    }
  }
  attr {
    key: "value"
    value {
      tensor {
        dtype: DT_FLOAT
        tensor_shape {
        }
        float_val: 0.0
      }
    }
  }
}
node {
  name: "conv2/weights/Adam/Initializer/zeros"
  op: "Fill"
  input: "conv2/weights/Adam/Initializer/zeros/shape_as_tensor"
  input: "conv2/weights/Adam/Initializer/zeros/Const"
  attr {
    key: "T"
    value {
      type: DT_FLOAT
    }
  }
  attr {
    key: "_class"
    value {
      list {
        s: "loc:@conv2/weights"
      }
    }
  }
  attr {
    key: "index_type"
    value {
      type: DT_INT32
    }
  }
}
node {
  name: "conv2/weights/Adam"
  op: "VariableV2"
  attr {
    key: "_class"
    value {
      list {
        s: "loc:@conv2/weights"
      }
    }
  }
  attr {
    key: "container"
    value {
      s: ""
    }
  }
  attr {
    key: "dtype"
    value {
      type: DT_FLOAT
    }
  }
  attr {
    key: "shape"
    value {
      shape {
        dim {
          size: 3
        }
        dim {
          size: 3
        }
        dim {
          size: 64
        }
        dim {
          size: 16
        }
      }
    }
  }
  attr {
    key: "shared_name"
    value {
      s: ""
    }
  }
}
node {
  name: "conv2/weights/Adam/Assign"
  op: "Assign"
  input: "conv2/weights/Adam"
  input: "conv2/weights/Adam/Initializer/zeros"
  attr {
    key: "T"
    value {
      type: DT_FLOAT
    }
  }
  attr {
    key: "_class"
    value {
      list {
        s: "loc:@conv2/weights"
      }
    }
  }
  attr {
    key: "use_locking"
    value {
      b: true
    }
  }
  attr {
    key: "validate_shape"
    value {
      b: true
    }
  }
}
node {
  name: "conv2/weights/Adam/read"
  op: "Identity"
  input: "conv2/weights/Adam"
  attr {
    key: "T"
    value {
      type: DT_FLOAT
    }
  }
  attr {
    key: "_class"
    value {
      list {
        s: "loc:@conv2/weights"
      }
    }
  }
}
node {
  name: "conv2/weights/Adam_1/Initializer/zeros/shape_as_tensor"
  op: "Const"
  attr {
    key: "_class"
    value {
      list {
        s: "loc:@conv2/weights"
      }
    }
  }
  attr {
    key: "dtype"
    value {
      type: DT_INT32
    }
  }
  attr {
    key: "value"
    value {
      tensor {
        dtype: DT_INT32
        tensor_shape {
          dim {
            size: 4
          }
        }
        tensor_content: "\003\000\000\000\003\000\000\000@\000\000\000\020\000\000\000"
      }
    }
  }
}
node {
  name: "conv2/weights/Adam_1/Initializer/zeros/Const"
  op: "Const"
  attr {
    key: "_class"
    value {
      list {
        s: "loc:@conv2/weights"
      }
    }
  }
  attr {
    key: "dtype"
    value {
      type: DT_FLOAT
    }
  }
  attr {
    key: "value"
    value {
      tensor {
        dtype: DT_FLOAT
        tensor_shape {
        }
        float_val: 0.0
      }
    }
  }
}
node {
  name: "conv2/weights/Adam_1/Initializer/zeros"
  op: "Fill"
  input: "conv2/weights/Adam_1/Initializer/zeros/shape_as_tensor"
  input: "conv2/weights/Adam_1/Initializer/zeros/Const"
  attr {
    key: "T"
    value {
      type: DT_FLOAT
    }
  }
  attr {
    key: "_class"
    value {
      list {
        s: "loc:@conv2/weights"
      }
    }
  }
  attr {
    key: "index_type"
    value {
      type: DT_INT32
    }
  }
}
node {
  name: "conv2/weights/Adam_1"
  op: "VariableV2"
  attr {
    key: "_class"
    value {
      list {
        s: "loc:@conv2/weights"
      }
    }
  }
  attr {
    key: "container"
    value {
      s: ""
    }
  }
  attr {
    key: "dtype"
    value {
      type: DT_FLOAT
    }
  }
  attr {
    key: "shape"
    value {
      shape {
        dim {
          size: 3
        }
        dim {
          size: 3
        }
        dim {
          size: 64
        }
        dim {
          size: 16
        }
      }
    }
  }
  attr {
    key: "shared_name"
    value {
      s: ""
    }
  }
}
node {
  name: "conv2/weights/Adam_1/Assign"
  op: "Assign"
  input: "conv2/weights/Adam_1"
  input: "conv2/weights/Adam_1/Initializer/zeros"
  attr {
    key: "T"
    value {
      type: DT_FLOAT
    }
  }
  attr {
    key: "_class"
    value {
      list {
        s: "loc:@conv2/weights"
      }
    }
  }
  attr {
    key: "use_locking"
    value {
      b: true
    }
  }
  attr {
    key: "validate_shape"
    value {
      b: true
    }
  }
}
node {
  name: "conv2/weights/Adam_1/read"
  op: "Identity"
  input: "conv2/weights/Adam_1"
  attr {
    key: "T"
    value {
      type: DT_FLOAT
    }
  }
  attr {
    key: "_class"
    value {
      list {
        s: "loc:@conv2/weights"
      }
    }
  }
}
node {
  name: "conv2/biases/Adam/Initializer/zeros"
  op: "Const"
  attr {
    key: "_class"
    value {
      list {
        s: "loc:@conv2/biases"
      }
    }
  }
  attr {
    key: "dtype"
    value {
      type: DT_FLOAT
    }
  }
  attr {
    key: "value"
    value {
      tensor {
        dtype: DT_FLOAT
        tensor_shape {
          dim {
            size: 16
          }
        }
        float_val: 0.0
      }
    }
  }
}
node {
  name: "conv2/biases/Adam"
  op: "VariableV2"
  attr {
    key: "_class"
    value {
      list {
        s: "loc:@conv2/biases"
      }
    }
  }
  attr {
    key: "container"
    value {
      s: ""
    }
  }
  attr {
    key: "dtype"
    value {
      type: DT_FLOAT
    }
  }
  attr {
    key: "shape"
    value {
      shape {
        dim {
          size: 16
        }
      }
    }
  }
  attr {
    key: "shared_name"
    value {
      s: ""
    }
  }
}
node {
  name: "conv2/biases/Adam/Assign"
  op: "Assign"
  input: "conv2/biases/Adam"
  input: "conv2/biases/Adam/Initializer/zeros"
  attr {
    key: "T"
    value {
      type: DT_FLOAT
    }
  }
  attr {
    key: "_class"
    value {
      list {
        s: "loc:@conv2/biases"
      }
    }
  }
  attr {
    key: "use_locking"
    value {
      b: true
    }
  }
  attr {
    key: "validate_shape"
    value {
      b: true
    }
  }
}
node {
  name: "conv2/biases/Adam/read"
  op: "Identity"
  input: "conv2/biases/Adam"
  attr {
    key: "T"
    value {
      type: DT_FLOAT
    }
  }
  attr {
    key: "_class"
    value {
      list {
        s: "loc:@conv2/biases"
      }
    }
  }
}
node {
  name: "conv2/biases/Adam_1/Initializer/zeros"
  op: "Const"
  attr {
    key: "_class"
    value {
      list {
        s: "loc:@conv2/biases"
      }
    }
  }
  attr {
    key: "dtype"
    value {
      type: DT_FLOAT
    }
  }
  attr {
    key: "value"
    value {
      tensor {
        dtype: DT_FLOAT
        tensor_shape {
          dim {
            size: 16
          }
        }
        float_val: 0.0
      }
    }
  }
}
node {
  name: "conv2/biases/Adam_1"
  op: "VariableV2"
  attr {
    key: "_class"
    value {
      list {
        s: "loc:@conv2/biases"
      }
    }
  }
  attr {
    key: "container"
    value {
      s: ""
    }
  }
  attr {
    key: "dtype"
    value {
      type: DT_FLOAT
    }
  }
  attr {
    key: "shape"
    value {
      shape {
        dim {
          size: 16
        }
      }
    }
  }
  attr {
    key: "shared_name"
    value {
      s: ""
    }
  }
}
node {
  name: "conv2/biases/Adam_1/Assign"
  op: "Assign"
  input: "conv2/biases/Adam_1"
  input: "conv2/biases/Adam_1/Initializer/zeros"
  attr {
    key: "T"
    value {
      type: DT_FLOAT
    }
  }
  attr {
    key: "_class"
    value {
      list {
        s: "loc:@conv2/biases"
      }
    }
  }
  attr {
    key: "use_locking"
    value {
      b: true
    }
  }
  attr {
    key: "validate_shape"
    value {
      b: true
    }
  }
}
node {
  name: "conv2/biases/Adam_1/read"
  op: "Identity"
  input: "conv2/biases/Adam_1"
  attr {
    key: "T"
    value {
      type: DT_FLOAT
    }
  }
  attr {
    key: "_class"
    value {
      list {
        s: "loc:@conv2/biases"
      }
    }
  }
}
node {
  name: "local3/weights/Adam/Initializer/zeros/shape_as_tensor"
  op: "Const"
  attr {
    key: "_class"
    value {
      list {
        s: "loc:@local3/weights"
      }
    }
  }
  attr {
    key: "dtype"
    value {
      type: DT_INT32
    }
  }
  attr {
    key: "value"
    value {
      tensor {
        dtype: DT_INT32
        tensor_shape {
          dim {
            size: 2
          }
        }
        tensor_content: "\000@\000\000\200\000\000\000"
      }
    }
  }
}
node {
  name: "local3/weights/Adam/Initializer/zeros/Const"
  op: "Const"
  attr {
    key: "_class"
    value {
      list {
        s: "loc:@local3/weights"
      }
    }
  }
  attr {
    key: "dtype"
    value {
      type: DT_FLOAT
    }
  }
  attr {
    key: "value"
    value {
      tensor {
        dtype: DT_FLOAT
        tensor_shape {
        }
        float_val: 0.0
      }
    }
  }
}
node {
  name: "local3/weights/Adam/Initializer/zeros"
  op: "Fill"
  input: "local3/weights/Adam/Initializer/zeros/shape_as_tensor"
  input: "local3/weights/Adam/Initializer/zeros/Const"
  attr {
    key: "T"
    value {
      type: DT_FLOAT
    }
  }
  attr {
    key: "_class"
    value {
      list {
        s: "loc:@local3/weights"
      }
    }
  }
  attr {
    key: "index_type"
    value {
      type: DT_INT32
    }
  }
}
node {
  name: "local3/weights/Adam"
  op: "VariableV2"
  attr {
    key: "_class"
    value {
      list {
        s: "loc:@local3/weights"
      }
    }
  }
  attr {
    key: "container"
    value {
      s: ""
    }
  }
  attr {
    key: "dtype"
    value {
      type: DT_FLOAT
    }
  }
  attr {
    key: "shape"
    value {
      shape {
        dim {
          size: 16384
        }
        dim {
          size: 128
        }
      }
    }
  }
  attr {
    key: "shared_name"
    value {
      s: ""
    }
  }
}
node {
  name: "local3/weights/Adam/Assign"
  op: "Assign"
  input: "local3/weights/Adam"
  input: "local3/weights/Adam/Initializer/zeros"
  attr {
    key: "T"
    value {
      type: DT_FLOAT
    }
  }
  attr {
    key: "_class"
    value {
      list {
        s: "loc:@local3/weights"
      }
    }
  }
  attr {
    key: "use_locking"
    value {
      b: true
    }
  }
  attr {
    key: "validate_shape"
    value {
      b: true
    }
  }
}
node {
  name: "local3/weights/Adam/read"
  op: "Identity"
  input: "local3/weights/Adam"
  attr {
    key: "T"
    value {
      type: DT_FLOAT
    }
  }
  attr {
    key: "_class"
    value {
      list {
        s: "loc:@local3/weights"
      }
    }
  }
}
node {
  name: "local3/weights/Adam_1/Initializer/zeros/shape_as_tensor"
  op: "Const"
  attr {
    key: "_class"
    value {
      list {
        s: "loc:@local3/weights"
      }
    }
  }
  attr {
    key: "dtype"
    value {
      type: DT_INT32
    }
  }
  attr {
    key: "value"
    value {
      tensor {
        dtype: DT_INT32
        tensor_shape {
          dim {
            size: 2
          }
        }
        tensor_content: "\000@\000\000\200\000\000\000"
      }
    }
  }
}
node {
  name: "local3/weights/Adam_1/Initializer/zeros/Const"
  op: "Const"
  attr {
    key: "_class"
    value {
      list {
        s: "loc:@local3/weights"
      }
    }
  }
  attr {
    key: "dtype"
    value {
      type: DT_FLOAT
    }
  }
  attr {
    key: "value"
    value {
      tensor {
        dtype: DT_FLOAT
        tensor_shape {
        }
        float_val: 0.0
      }
    }
  }
}
node {
  name: "local3/weights/Adam_1/Initializer/zeros"
  op: "Fill"
  input: "local3/weights/Adam_1/Initializer/zeros/shape_as_tensor"
  input: "local3/weights/Adam_1/Initializer/zeros/Const"
  attr {
    key: "T"
    value {
      type: DT_FLOAT
    }
  }
  attr {
    key: "_class"
    value {
      list {
        s: "loc:@local3/weights"
      }
    }
  }
  attr {
    key: "index_type"
    value {
      type: DT_INT32
    }
  }
}
node {
  name: "local3/weights/Adam_1"
  op: "VariableV2"
  attr {
    key: "_class"
    value {
      list {
        s: "loc:@local3/weights"
      }
    }
  }
  attr {
    key: "container"
    value {
      s: ""
    }
  }
  attr {
    key: "dtype"
    value {
      type: DT_FLOAT
    }
  }
  attr {
    key: "shape"
    value {
      shape {
        dim {
          size: 16384
        }
        dim {
          size: 128
        }
      }
    }
  }
  attr {
    key: "shared_name"
    value {
      s: ""
    }
  }
}
node {
  name: "local3/weights/Adam_1/Assign"
  op: "Assign"
  input: "local3/weights/Adam_1"
  input: "local3/weights/Adam_1/Initializer/zeros"
  attr {
    key: "T"
    value {
      type: DT_FLOAT
    }
  }
  attr {
    key: "_class"
    value {
      list {
        s: "loc:@local3/weights"
      }
    }
  }
  attr {
    key: "use_locking"
    value {
      b: true
    }
  }
  attr {
    key: "validate_shape"
    value {
      b: true
    }
  }
}
node {
  name: "local3/weights/Adam_1/read"
  op: "Identity"
  input: "local3/weights/Adam_1"
  attr {
    key: "T"
    value {
      type: DT_FLOAT
    }
  }
  attr {
    key: "_class"
    value {
      list {
        s: "loc:@local3/weights"
      }
    }
  }
}
node {
  name: "local3/biases/Adam/Initializer/zeros"
  op: "Const"
  attr {
    key: "_class"
    value {
      list {
        s: "loc:@local3/biases"
      }
    }
  }
  attr {
    key: "dtype"
    value {
      type: DT_FLOAT
    }
  }
  attr {
    key: "value"
    value {
      tensor {
        dtype: DT_FLOAT
        tensor_shape {
          dim {
            size: 128
          }
        }
        float_val: 0.0
      }
    }
  }
}
node {
  name: "local3/biases/Adam"
  op: "VariableV2"
  attr {
    key: "_class"
    value {
      list {
        s: "loc:@local3/biases"
      }
    }
  }
  attr {
    key: "container"
    value {
      s: ""
    }
  }
  attr {
    key: "dtype"
    value {
      type: DT_FLOAT
    }
  }
  attr {
    key: "shape"
    value {
      shape {
        dim {
          size: 128
        }
      }
    }
  }
  attr {
    key: "shared_name"
    value {
      s: ""
    }
  }
}
node {
  name: "local3/biases/Adam/Assign"
  op: "Assign"
  input: "local3/biases/Adam"
  input: "local3/biases/Adam/Initializer/zeros"
  attr {
    key: "T"
    value {
      type: DT_FLOAT
    }
  }
  attr {
    key: "_class"
    value {
      list {
        s: "loc:@local3/biases"
      }
    }
  }
  attr {
    key: "use_locking"
    value {
      b: true
    }
  }
  attr {
    key: "validate_shape"
    value {
      b: true
    }
  }
}
node {
  name: "local3/biases/Adam/read"
  op: "Identity"
  input: "local3/biases/Adam"
  attr {
    key: "T"
    value {
      type: DT_FLOAT
    }
  }
  attr {
    key: "_class"
    value {
      list {
        s: "loc:@local3/biases"
      }
    }
  }
}
node {
  name: "local3/biases/Adam_1/Initializer/zeros"
  op: "Const"
  attr {
    key: "_class"
    value {
      list {
        s: "loc:@local3/biases"
      }
    }
  }
  attr {
    key: "dtype"
    value {
      type: DT_FLOAT
    }
  }
  attr {
    key: "value"
    value {
      tensor {
        dtype: DT_FLOAT
        tensor_shape {
          dim {
            size: 128
          }
        }
        float_val: 0.0
      }
    }
  }
}
node {
  name: "local3/biases/Adam_1"
  op: "VariableV2"
  attr {
    key: "_class"
    value {
      list {
        s: "loc:@local3/biases"
      }
    }
  }
  attr {
    key: "container"
    value {
      s: ""
    }
  }
  attr {
    key: "dtype"
    value {
      type: DT_FLOAT
    }
  }
  attr {
    key: "shape"
    value {
      shape {
        dim {
          size: 128
        }
      }
    }
  }
  attr {
    key: "shared_name"
    value {
      s: ""
    }
  }
}
node {
  name: "local3/biases/Adam_1/Assign"
  op: "Assign"
  input: "local3/biases/Adam_1"
  input: "local3/biases/Adam_1/Initializer/zeros"
  attr {
    key: "T"
    value {
      type: DT_FLOAT
    }
  }
  attr {
    key: "_class"
    value {
      list {
        s: "loc:@local3/biases"
      }
    }
  }
  attr {
    key: "use_locking"
    value {
      b: true
    }
  }
  attr {
    key: "validate_shape"
    value {
      b: true
    }
  }
}
node {
  name: "local3/biases/Adam_1/read"
  op: "Identity"
  input: "local3/biases/Adam_1"
  attr {
    key: "T"
    value {
      type: DT_FLOAT
    }
  }
  attr {
    key: "_class"
    value {
      list {
        s: "loc:@local3/biases"
      }
    }
  }
}
node {
  name: "local4/weights/Adam/Initializer/zeros/shape_as_tensor"
  op: "Const"
  attr {
    key: "_class"
    value {
      list {
        s: "loc:@local4/weights"
      }
    }
  }
  attr {
    key: "dtype"
    value {
      type: DT_INT32
    }
  }
  attr {
    key: "value"
    value {
      tensor {
        dtype: DT_INT32
        tensor_shape {
          dim {
            size: 2
          }
        }
        tensor_content: "\200\000\000\000\200\000\000\000"
      }
    }
  }
}
node {
  name: "local4/weights/Adam/Initializer/zeros/Const"
  op: "Const"
  attr {
    key: "_class"
    value {
      list {
        s: "loc:@local4/weights"
      }
    }
  }
  attr {
    key: "dtype"
    value {
      type: DT_FLOAT
    }
  }
  attr {
    key: "value"
    value {
      tensor {
        dtype: DT_FLOAT
        tensor_shape {
        }
        float_val: 0.0
      }
    }
  }
}
node {
  name: "local4/weights/Adam/Initializer/zeros"
  op: "Fill"
  input: "local4/weights/Adam/Initializer/zeros/shape_as_tensor"
  input: "local4/weights/Adam/Initializer/zeros/Const"
  attr {
    key: "T"
    value {
      type: DT_FLOAT
    }
  }
  attr {
    key: "_class"
    value {
      list {
        s: "loc:@local4/weights"
      }
    }
  }
  attr {
    key: "index_type"
    value {
      type: DT_INT32
    }
  }
}
node {
  name: "local4/weights/Adam"
  op: "VariableV2"
  attr {
    key: "_class"
    value {
      list {
        s: "loc:@local4/weights"
      }
    }
  }
  attr {
    key: "container"
    value {
      s: ""
    }
  }
  attr {
    key: "dtype"
    value {
      type: DT_FLOAT
    }
  }
  attr {
    key: "shape"
    value {
      shape {
        dim {
          size: 128
        }
        dim {
          size: 128
        }
      }
    }
  }
  attr {
    key: "shared_name"
    value {
      s: ""
    }
  }
}
node {
  name: "local4/weights/Adam/Assign"
  op: "Assign"
  input: "local4/weights/Adam"
  input: "local4/weights/Adam/Initializer/zeros"
  attr {
    key: "T"
    value {
      type: DT_FLOAT
    }
  }
  attr {
    key: "_class"
    value {
      list {
        s: "loc:@local4/weights"
      }
    }
  }
  attr {
    key: "use_locking"
    value {
      b: true
    }
  }
  attr {
    key: "validate_shape"
    value {
      b: true
    }
  }
}
node {
  name: "local4/weights/Adam/read"
  op: "Identity"
  input: "local4/weights/Adam"
  attr {
    key: "T"
    value {
      type: DT_FLOAT
    }
  }
  attr {
    key: "_class"
    value {
      list {
        s: "loc:@local4/weights"
      }
    }
  }
}
node {
  name: "local4/weights/Adam_1/Initializer/zeros/shape_as_tensor"
  op: "Const"
  attr {
    key: "_class"
    value {
      list {
        s: "loc:@local4/weights"
      }
    }
  }
  attr {
    key: "dtype"
    value {
      type: DT_INT32
    }
  }
  attr {
    key: "value"
    value {
      tensor {
        dtype: DT_INT32
        tensor_shape {
          dim {
            size: 2
          }
        }
        tensor_content: "\200\000\000\000\200\000\000\000"
      }
    }
  }
}
node {
  name: "local4/weights/Adam_1/Initializer/zeros/Const"
  op: "Const"
  attr {
    key: "_class"
    value {
      list {
        s: "loc:@local4/weights"
      }
    }
  }
  attr {
    key: "dtype"
    value {
      type: DT_FLOAT
    }
  }
  attr {
    key: "value"
    value {
      tensor {
        dtype: DT_FLOAT
        tensor_shape {
        }
        float_val: 0.0
      }
    }
  }
}
node {
  name: "local4/weights/Adam_1/Initializer/zeros"
  op: "Fill"
  input: "local4/weights/Adam_1/Initializer/zeros/shape_as_tensor"
  input: "local4/weights/Adam_1/Initializer/zeros/Const"
  attr {
    key: "T"
    value {
      type: DT_FLOAT
    }
  }
  attr {
    key: "_class"
    value {
      list {
        s: "loc:@local4/weights"
      }
    }
  }
  attr {
    key: "index_type"
    value {
      type: DT_INT32
    }
  }
}
node {
  name: "local4/weights/Adam_1"
  op: "VariableV2"
  attr {
    key: "_class"
    value {
      list {
        s: "loc:@local4/weights"
      }
    }
  }
  attr {
    key: "container"
    value {
      s: ""
    }
  }
  attr {
    key: "dtype"
    value {
      type: DT_FLOAT
    }
  }
  attr {
    key: "shape"
    value {
      shape {
        dim {
          size: 128
        }
        dim {
          size: 128
        }
      }
    }
  }
  attr {
    key: "shared_name"
    value {
      s: ""
    }
  }
}
node {
  name: "local4/weights/Adam_1/Assign"
  op: "Assign"
  input: "local4/weights/Adam_1"
  input: "local4/weights/Adam_1/Initializer/zeros"
  attr {
    key: "T"
    value {
      type: DT_FLOAT
    }
  }
  attr {
    key: "_class"
    value {
      list {
        s: "loc:@local4/weights"
      }
    }
  }
  attr {
    key: "use_locking"
    value {
      b: true
    }
  }
  attr {
    key: "validate_shape"
    value {
      b: true
    }
  }
}
node {
  name: "local4/weights/Adam_1/read"
  op: "Identity"
  input: "local4/weights/Adam_1"
  attr {
    key: "T"
    value {
      type: DT_FLOAT
    }
  }
  attr {
    key: "_class"
    value {
      list {
        s: "loc:@local4/weights"
      }
    }
  }
}
node {
  name: "local4/biases/Adam/Initializer/zeros"
  op: "Const"
  attr {
    key: "_class"
    value {
      list {
        s: "loc:@local4/biases"
      }
    }
  }
  attr {
    key: "dtype"
    value {
      type: DT_FLOAT
    }
  }
  attr {
    key: "value"
    value {
      tensor {
        dtype: DT_FLOAT
        tensor_shape {
          dim {
            size: 128
          }
        }
        float_val: 0.0
      }
    }
  }
}
node {
  name: "local4/biases/Adam"
  op: "VariableV2"
  attr {
    key: "_class"
    value {
      list {
        s: "loc:@local4/biases"
      }
    }
  }
  attr {
    key: "container"
    value {
      s: ""
    }
  }
  attr {
    key: "dtype"
    value {
      type: DT_FLOAT
    }
  }
  attr {
    key: "shape"
    value {
      shape {
        dim {
          size: 128
        }
      }
    }
  }
  attr {
    key: "shared_name"
    value {
      s: ""
    }
  }
}
node {
  name: "local4/biases/Adam/Assign"
  op: "Assign"
  input: "local4/biases/Adam"
  input: "local4/biases/Adam/Initializer/zeros"
  attr {
    key: "T"
    value {
      type: DT_FLOAT
    }
  }
  attr {
    key: "_class"
    value {
      list {
        s: "loc:@local4/biases"
      }
    }
  }
  attr {
    key: "use_locking"
    value {
      b: true
    }
  }
  attr {
    key: "validate_shape"
    value {
      b: true
    }
  }
}
node {
  name: "local4/biases/Adam/read"
  op: "Identity"
  input: "local4/biases/Adam"
  attr {
    key: "T"
    value {
      type: DT_FLOAT
    }
  }
  attr {
    key: "_class"
    value {
      list {
        s: "loc:@local4/biases"
      }
    }
  }
}
node {
  name: "local4/biases/Adam_1/Initializer/zeros"
  op: "Const"
  attr {
    key: "_class"
    value {
      list {
        s: "loc:@local4/biases"
      }
    }
  }
  attr {
    key: "dtype"
    value {
      type: DT_FLOAT
    }
  }
  attr {
    key: "value"
    value {
      tensor {
        dtype: DT_FLOAT
        tensor_shape {
          dim {
            size: 128
          }
        }
        float_val: 0.0
      }
    }
  }
}
node {
  name: "local4/biases/Adam_1"
  op: "VariableV2"
  attr {
    key: "_class"
    value {
      list {
        s: "loc:@local4/biases"
      }
    }
  }
  attr {
    key: "container"
    value {
      s: ""
    }
  }
  attr {
    key: "dtype"
    value {
      type: DT_FLOAT
    }
  }
  attr {
    key: "shape"
    value {
      shape {
        dim {
          size: 128
        }
      }
    }
  }
  attr {
    key: "shared_name"
    value {
      s: ""
    }
  }
}
node {
  name: "local4/biases/Adam_1/Assign"
  op: "Assign"
  input: "local4/biases/Adam_1"
  input: "local4/biases/Adam_1/Initializer/zeros"
  attr {
    key: "T"
    value {
      type: DT_FLOAT
    }
  }
  attr {
    key: "_class"
    value {
      list {
        s: "loc:@local4/biases"
      }
    }
  }
  attr {
    key: "use_locking"
    value {
      b: true
    }
  }
  attr {
    key: "validate_shape"
    value {
      b: true
    }
  }
}
node {
  name: "local4/biases/Adam_1/read"
  op: "Identity"
  input: "local4/biases/Adam_1"
  attr {
    key: "T"
    value {
      type: DT_FLOAT
    }
  }
  attr {
    key: "_class"
    value {
      list {
        s: "loc:@local4/biases"
      }
    }
  }
}
node {
  name: "softmax_linear/softmax_linear/Adam/Initializer/zeros"
  op: "Const"
  attr {
    key: "_class"
    value {
      list {
        s: "loc:@softmax_linear/softmax_linear"
      }
    }
  }
  attr {
    key: "dtype"
    value {
      type: DT_FLOAT
    }
  }
  attr {
    key: "value"
    value {
      tensor {
        dtype: DT_FLOAT
        tensor_shape {
          dim {
            size: 128
          }
          dim {
            size: 3
          }
        }
        float_val: 0.0
      }
    }
  }
}
node {
  name: "softmax_linear/softmax_linear/Adam"
  op: "VariableV2"
  attr {
    key: "_class"
    value {
      list {
        s: "loc:@softmax_linear/softmax_linear"
      }
    }
  }
  attr {
    key: "container"
    value {
      s: ""
    }
  }
  attr {
    key: "dtype"
    value {
      type: DT_FLOAT
    }
  }
  attr {
    key: "shape"
    value {
      shape {
        dim {
          size: 128
        }
        dim {
          size: 3
        }
      }
    }
  }
  attr {
    key: "shared_name"
    value {
      s: ""
    }
  }
}
node {
  name: "softmax_linear/softmax_linear/Adam/Assign"
  op: "Assign"
  input: "softmax_linear/softmax_linear/Adam"
  input: "softmax_linear/softmax_linear/Adam/Initializer/zeros"
  attr {
    key: "T"
    value {
      type: DT_FLOAT
    }
  }
  attr {
    key: "_class"
    value {
      list {
        s: "loc:@softmax_linear/softmax_linear"
      }
    }
  }
  attr {
    key: "use_locking"
    value {
      b: true
    }
  }
  attr {
    key: "validate_shape"
    value {
      b: true
    }
  }
}
node {
  name: "softmax_linear/softmax_linear/Adam/read"
  op: "Identity"
  input: "softmax_linear/softmax_linear/Adam"
  attr {
    key: "T"
    value {
      type: DT_FLOAT
    }
  }
  attr {
    key: "_class"
    value {
      list {
        s: "loc:@softmax_linear/softmax_linear"
      }
    }
  }
}
node {
  name: "softmax_linear/softmax_linear/Adam_1/Initializer/zeros"
  op: "Const"
  attr {
    key: "_class"
    value {
      list {
        s: "loc:@softmax_linear/softmax_linear"
      }
    }
  }
  attr {
    key: "dtype"
    value {
      type: DT_FLOAT
    }
  }
  attr {
    key: "value"
    value {
      tensor {
        dtype: DT_FLOAT
        tensor_shape {
          dim {
            size: 128
          }
          dim {
            size: 3
          }
        }
        float_val: 0.0
      }
    }
  }
}
node {
  name: "softmax_linear/softmax_linear/Adam_1"
  op: "VariableV2"
  attr {
    key: "_class"
    value {
      list {
        s: "loc:@softmax_linear/softmax_linear"
      }
    }
  }
  attr {
    key: "container"
    value {
      s: ""
    }
  }
  attr {
    key: "dtype"
    value {
      type: DT_FLOAT
    }
  }
  attr {
    key: "shape"
    value {
      shape {
        dim {
          size: 128
        }
        dim {
          size: 3
        }
      }
    }
  }
  attr {
    key: "shared_name"
    value {
      s: ""
    }
  }
}
node {
  name: "softmax_linear/softmax_linear/Adam_1/Assign"
  op: "Assign"
  input: "softmax_linear/softmax_linear/Adam_1"
  input: "softmax_linear/softmax_linear/Adam_1/Initializer/zeros"
  attr {
    key: "T"
    value {
      type: DT_FLOAT
    }
  }
  attr {
    key: "_class"
    value {
      list {
        s: "loc:@softmax_linear/softmax_linear"
      }
    }
  }
  attr {
    key: "use_locking"
    value {
      b: true
    }
  }
  attr {
    key: "validate_shape"
    value {
      b: true
    }
  }
}
node {
  name: "softmax_linear/softmax_linear/Adam_1/read"
  op: "Identity"
  input: "softmax_linear/softmax_linear/Adam_1"
  attr {
    key: "T"
    value {
      type: DT_FLOAT
    }
  }
  attr {
    key: "_class"
    value {
      list {
        s: "loc:@softmax_linear/softmax_linear"
      }
    }
  }
}
node {
  name: "softmax_linear/biases/Adam/Initializer/zeros"
  op: "Const"
  attr {
    key: "_class"
    value {
      list {
        s: "loc:@softmax_linear/biases"
      }
    }
  }
  attr {
    key: "dtype"
    value {
      type: DT_FLOAT
    }
  }
  attr {
    key: "value"
    value {
      tensor {
        dtype: DT_FLOAT
        tensor_shape {
          dim {
            size: 3
          }
        }
        float_val: 0.0
      }
    }
  }
}
node {
  name: "softmax_linear/biases/Adam"
  op: "VariableV2"
  attr {
    key: "_class"
    value {
      list {
        s: "loc:@softmax_linear/biases"
      }
    }
  }
  attr {
    key: "container"
    value {
      s: ""
    }
  }
  attr {
    key: "dtype"
    value {
      type: DT_FLOAT
    }
  }
  attr {
    key: "shape"
    value {
      shape {
        dim {
          size: 3
        }
      }
    }
  }
  attr {
    key: "shared_name"
    value {
      s: ""
    }
  }
}
node {
  name: "softmax_linear/biases/Adam/Assign"
  op: "Assign"
  input: "softmax_linear/biases/Adam"
  input: "softmax_linear/biases/Adam/Initializer/zeros"
  attr {
    key: "T"
    value {
      type: DT_FLOAT
    }
  }
  attr {
    key: "_class"
    value {
      list {
        s: "loc:@softmax_linear/biases"
      }
    }
  }
  attr {
    key: "use_locking"
    value {
      b: true
    }
  }
  attr {
    key: "validate_shape"
    value {
      b: true
    }
  }
}
node {
  name: "softmax_linear/biases/Adam/read"
  op: "Identity"
  input: "softmax_linear/biases/Adam"
  attr {
    key: "T"
    value {
      type: DT_FLOAT
    }
  }
  attr {
    key: "_class"
    value {
      list {
        s: "loc:@softmax_linear/biases"
      }
    }
  }
}
node {
  name: "softmax_linear/biases/Adam_1/Initializer/zeros"
  op: "Const"
  attr {
    key: "_class"
    value {
      list {
        s: "loc:@softmax_linear/biases"
      }
    }
  }
  attr {
    key: "dtype"
    value {
      type: DT_FLOAT
    }
  }
  attr {
    key: "value"
    value {
      tensor {
        dtype: DT_FLOAT
        tensor_shape {
          dim {
            size: 3
          }
        }
        float_val: 0.0
      }
    }
  }
}
node {
  name: "softmax_linear/biases/Adam_1"
  op: "VariableV2"
  attr {
    key: "_class"
    value {
      list {
        s: "loc:@softmax_linear/biases"
      }
    }
  }
  attr {
    key: "container"
    value {
      s: ""
    }
  }
  attr {
    key: "dtype"
    value {
      type: DT_FLOAT
    }
  }
  attr {
    key: "shape"
    value {
      shape {
        dim {
          size: 3
        }
      }
    }
  }
  attr {
    key: "shared_name"
    value {
      s: ""
    }
  }
}
node {
  name: "softmax_linear/biases/Adam_1/Assign"
  op: "Assign"
  input: "softmax_linear/biases/Adam_1"
  input: "softmax_linear/biases/Adam_1/Initializer/zeros"
  attr {
    key: "T"
    value {
      type: DT_FLOAT
    }
  }
  attr {
    key: "_class"
    value {
      list {
        s: "loc:@softmax_linear/biases"
      }
    }
  }
  attr {
    key: "use_locking"
    value {
      b: true
    }
  }
  attr {
    key: "validate_shape"
    value {
      b: true
    }
  }
}
node {
  name: "softmax_linear/biases/Adam_1/read"
  op: "Identity"
  input: "softmax_linear/biases/Adam_1"
  attr {
    key: "T"
    value {
      type: DT_FLOAT
    }
  }
  attr {
    key: "_class"
    value {
      list {
        s: "loc:@softmax_linear/biases"
      }
    }
  }
}
node {
  name: "optimizer/Adam/learning_rate"
  op: "Const"
  attr {
    key: "dtype"
    value {
      type: DT_FLOAT
    }
  }
  attr {
    key: "value"
    value {
      tensor {
        dtype: DT_FLOAT
        tensor_shape {
        }
        float_val: 9.999999747378752e-06
      }
    }
  }
}
node {
  name: "optimizer/Adam/beta1"
  op: "Const"
  attr {
    key: "dtype"
    value {
      type: DT_FLOAT
    }
  }
  attr {
    key: "value"
    value {
      tensor {
        dtype: DT_FLOAT
        tensor_shape {
        }
        float_val: 0.8999999761581421
      }
    }
  }
}
node {
  name: "optimizer/Adam/beta2"
  op: "Const"
  attr {
    key: "dtype"
    value {
      type: DT_FLOAT
    }
  }
  attr {
    key: "value"
    value {
      tensor {
        dtype: DT_FLOAT
        tensor_shape {
        }
        float_val: 0.9990000128746033
      }
    }
  }
}
node {
  name: "optimizer/Adam/epsilon"
  op: "Const"
  attr {
    key: "dtype"
    value {
      type: DT_FLOAT
    }
  }
  attr {
    key: "value"
    value {
      tensor {
        dtype: DT_FLOAT
        tensor_shape {
        }
        float_val: 9.99999993922529e-09
      }
    }
  }
}
node {
  name: "optimizer/Adam/update_conv1/weights/ApplyAdam"
  op: "ApplyAdam"
  input: "conv1/weights"
  input: "conv1/weights/Adam"
  input: "conv1/weights/Adam_1"
  input: "optimizer/beta1_power/read"
  input: "optimizer/beta2_power/read"
  input: "optimizer/Adam/learning_rate"
  input: "optimizer/Adam/beta1"
  input: "optimizer/Adam/beta2"
  input: "optimizer/Adam/epsilon"
  input: "optimizer/gradients/conv1/Conv2D_grad/tuple/control_dependency_1"
  attr {
    key: "T"
    value {
      type: DT_FLOAT
    }
  }
  attr {
    key: "_class"
    value {
      list {
        s: "loc:@conv1/weights"
      }
    }
  }
  attr {
    key: "use_locking"
    value {
      b: false
    }
  }
  attr {
    key: "use_nesterov"
    value {
      b: false
    }
  }
}
node {
  name: "optimizer/Adam/update_conv1/biases/ApplyAdam"
  op: "ApplyAdam"
  input: "conv1/biases"
  input: "conv1/biases/Adam"
  input: "conv1/biases/Adam_1"
  input: "optimizer/beta1_power/read"
  input: "optimizer/beta2_power/read"
  input: "optimizer/Adam/learning_rate"
  input: "optimizer/Adam/beta1"
  input: "optimizer/Adam/beta2"
  input: "optimizer/Adam/epsilon"
  input: "optimizer/gradients/conv1/BiasAdd_grad/tuple/control_dependency_1"
  attr {
    key: "T"
    value {
      type: DT_FLOAT
    }
  }
  attr {
    key: "_class"
    value {
      list {
        s: "loc:@conv1/biases"
      }
    }
  }
  attr {
    key: "use_locking"
    value {
      b: false
    }
  }
  attr {
    key: "use_nesterov"
    value {
      b: false
    }
  }
}
node {
  name: "optimizer/Adam/update_conv2/weights/ApplyAdam"
  op: "ApplyAdam"
  input: "conv2/weights"
  input: "conv2/weights/Adam"
  input: "conv2/weights/Adam_1"
  input: "optimizer/beta1_power/read"
  input: "optimizer/beta2_power/read"
  input: "optimizer/Adam/learning_rate"
  input: "optimizer/Adam/beta1"
  input: "optimizer/Adam/beta2"
  input: "optimizer/Adam/epsilon"
  input: "optimizer/gradients/conv2/Conv2D_grad/tuple/control_dependency_1"
  attr {
    key: "T"
    value {
      type: DT_FLOAT
    }
  }
  attr {
    key: "_class"
    value {
      list {
        s: "loc:@conv2/weights"
      }
    }
  }
  attr {
    key: "use_locking"
    value {
      b: false
    }
  }
  attr {
    key: "use_nesterov"
    value {
      b: false
    }
  }
}
node {
  name: "optimizer/Adam/update_conv2/biases/ApplyAdam"
  op: "ApplyAdam"
  input: "conv2/biases"
  input: "conv2/biases/Adam"
  input: "conv2/biases/Adam_1"
  input: "optimizer/beta1_power/read"
  input: "optimizer/beta2_power/read"
  input: "optimizer/Adam/learning_rate"
  input: "optimizer/Adam/beta1"
  input: "optimizer/Adam/beta2"
  input: "optimizer/Adam/epsilon"
  input: "optimizer/gradients/conv2/BiasAdd_grad/tuple/control_dependency_1"
  attr {
    key: "T"
    value {
      type: DT_FLOAT
    }
  }
  attr {
    key: "_class"
    value {
      list {
        s: "loc:@conv2/biases"
      }
    }
  }
  attr {
    key: "use_locking"
    value {
      b: false
    }
  }
  attr {
    key: "use_nesterov"
    value {
      b: false
    }
  }
}
node {
  name: "optimizer/Adam/update_local3/weights/ApplyAdam"
  op: "ApplyAdam"
  input: "local3/weights"
  input: "local3/weights/Adam"
  input: "local3/weights/Adam_1"
  input: "optimizer/beta1_power/read"
  input: "optimizer/beta2_power/read"
  input: "optimizer/Adam/learning_rate"
  input: "optimizer/Adam/beta1"
  input: "optimizer/Adam/beta2"
  input: "optimizer/Adam/epsilon"
  input: "optimizer/gradients/local3/MatMul_grad/tuple/control_dependency_1"
  attr {
    key: "T"
    value {
      type: DT_FLOAT
    }
  }
  attr {
    key: "_class"
    value {
      list {
        s: "loc:@local3/weights"
      }
    }
  }
  attr {
    key: "use_locking"
    value {
      b: false
    }
  }
  attr {
    key: "use_nesterov"
    value {
      b: false
    }
  }
}
node {
  name: "optimizer/Adam/update_local3/biases/ApplyAdam"
  op: "ApplyAdam"
  input: "local3/biases"
  input: "local3/biases/Adam"
  input: "local3/biases/Adam_1"
  input: "optimizer/beta1_power/read"
  input: "optimizer/beta2_power/read"
  input: "optimizer/Adam/learning_rate"
  input: "optimizer/Adam/beta1"
  input: "optimizer/Adam/beta2"
  input: "optimizer/Adam/epsilon"
  input: "optimizer/gradients/local3/add_grad/tuple/control_dependency_1"
  attr {
    key: "T"
    value {
      type: DT_FLOAT
    }
  }
  attr {
    key: "_class"
    value {
      list {
        s: "loc:@local3/biases"
      }
    }
  }
  attr {
    key: "use_locking"
    value {
      b: false
    }
  }
  attr {
    key: "use_nesterov"
    value {
      b: false
    }
  }
}
node {
  name: "optimizer/Adam/update_local4/weights/ApplyAdam"
  op: "ApplyAdam"
  input: "local4/weights"
  input: "local4/weights/Adam"
  input: "local4/weights/Adam_1"
  input: "optimizer/beta1_power/read"
  input: "optimizer/beta2_power/read"
  input: "optimizer/Adam/learning_rate"
  input: "optimizer/Adam/beta1"
  input: "optimizer/Adam/beta2"
  input: "optimizer/Adam/epsilon"
  input: "optimizer/gradients/local4/MatMul_grad/tuple/control_dependency_1"
  attr {
    key: "T"
    value {
      type: DT_FLOAT
    }
  }
  attr {
    key: "_class"
    value {
      list {
        s: "loc:@local4/weights"
      }
    }
  }
  attr {
    key: "use_locking"
    value {
      b: false
    }
  }
  attr {
    key: "use_nesterov"
    value {
      b: false
    }
  }
}
node {
  name: "optimizer/Adam/update_local4/biases/ApplyAdam"
  op: "ApplyAdam"
  input: "local4/biases"
  input: "local4/biases/Adam"
  input: "local4/biases/Adam_1"
  input: "optimizer/beta1_power/read"
  input: "optimizer/beta2_power/read"
  input: "optimizer/Adam/learning_rate"
  input: "optimizer/Adam/beta1"
  input: "optimizer/Adam/beta2"
  input: "optimizer/Adam/epsilon"
  input: "optimizer/gradients/local4/add_grad/tuple/control_dependency_1"
  attr {
    key: "T"
    value {
      type: DT_FLOAT
    }
  }
  attr {
    key: "_class"
    value {
      list {
        s: "loc:@local4/biases"
      }
    }
  }
  attr {
    key: "use_locking"
    value {
      b: false
    }
  }
  attr {
    key: "use_nesterov"
    value {
      b: false
    }
  }
}
node {
  name: "optimizer/Adam/update_softmax_linear/softmax_linear/ApplyAdam"
  op: "ApplyAdam"
  input: "softmax_linear/softmax_linear"
  input: "softmax_linear/softmax_linear/Adam"
  input: "softmax_linear/softmax_linear/Adam_1"
  input: "optimizer/beta1_power/read"
  input: "optimizer/beta2_power/read"
  input: "optimizer/Adam/learning_rate"
  input: "optimizer/Adam/beta1"
  input: "optimizer/Adam/beta2"
  input: "optimizer/Adam/epsilon"
  input: "optimizer/gradients/softmax_linear/MatMul_grad/tuple/control_dependency_1"
  attr {
    key: "T"
    value {
      type: DT_FLOAT
    }
  }
  attr {
    key: "_class"
    value {
      list {
        s: "loc:@softmax_linear/softmax_linear"
      }
    }
  }
  attr {
    key: "use_locking"
    value {
      b: false
    }
  }
  attr {
    key: "use_nesterov"
    value {
      b: false
    }
  }
}
node {
  name: "optimizer/Adam/update_softmax_linear/biases/ApplyAdam"
  op: "ApplyAdam"
  input: "softmax_linear/biases"
  input: "softmax_linear/biases/Adam"
  input: "softmax_linear/biases/Adam_1"
  input: "optimizer/beta1_power/read"
  input: "optimizer/beta2_power/read"
  input: "optimizer/Adam/learning_rate"
  input: "optimizer/Adam/beta1"
  input: "optimizer/Adam/beta2"
  input: "optimizer/Adam/epsilon"
  input: "optimizer/gradients/softmax_linear/softmax_grad/tuple/control_dependency_1"
  attr {
    key: "T"
    value {
      type: DT_FLOAT
    }
  }
  attr {
    key: "_class"
    value {
      list {
        s: "loc:@softmax_linear/biases"
      }
    }
  }
  attr {
    key: "use_locking"
    value {
      b: false
    }
  }
  attr {
    key: "use_nesterov"
    value {
      b: false
    }
  }
}
node {
  name: "optimizer/Adam/mul"
  op: "Mul"
  input: "optimizer/beta1_power/read"
  input: "optimizer/Adam/beta1"
  input: "^optimizer/Adam/update_conv1/biases/ApplyAdam"
  input: "^optimizer/Adam/update_conv1/weights/ApplyAdam"
  input: "^optimizer/Adam/update_conv2/biases/ApplyAdam"
  input: "^optimizer/Adam/update_conv2/weights/ApplyAdam"
  input: "^optimizer/Adam/update_local3/biases/ApplyAdam"
  input: "^optimizer/Adam/update_local3/weights/ApplyAdam"
  input: "^optimizer/Adam/update_local4/biases/ApplyAdam"
  input: "^optimizer/Adam/update_local4/weights/ApplyAdam"
  input: "^optimizer/Adam/update_softmax_linear/biases/ApplyAdam"
  input: "^optimizer/Adam/update_softmax_linear/softmax_linear/ApplyAdam"
  attr {
    key: "T"
    value {
      type: DT_FLOAT
    }
  }
  attr {
    key: "_class"
    value {
      list {
        s: "loc:@conv1/biases"
      }
    }
  }
}
node {
  name: "optimizer/Adam/Assign"
  op: "Assign"
  input: "optimizer/beta1_power"
  input: "optimizer/Adam/mul"
  attr {
    key: "T"
    value {
      type: DT_FLOAT
    }
  }
  attr {
    key: "_class"
    value {
      list {
        s: "loc:@conv1/biases"
      }
    }
  }
  attr {
    key: "use_locking"
    value {
      b: false
    }
  }
  attr {
    key: "validate_shape"
    value {
      b: true
    }
  }
}
node {
  name: "optimizer/Adam/mul_1"
  op: "Mul"
  input: "optimizer/beta2_power/read"
  input: "optimizer/Adam/beta2"
  input: "^optimizer/Adam/update_conv1/biases/ApplyAdam"
  input: "^optimizer/Adam/update_conv1/weights/ApplyAdam"
  input: "^optimizer/Adam/update_conv2/biases/ApplyAdam"
  input: "^optimizer/Adam/update_conv2/weights/ApplyAdam"
  input: "^optimizer/Adam/update_local3/biases/ApplyAdam"
  input: "^optimizer/Adam/update_local3/weights/ApplyAdam"
  input: "^optimizer/Adam/update_local4/biases/ApplyAdam"
  input: "^optimizer/Adam/update_local4/weights/ApplyAdam"
  input: "^optimizer/Adam/update_softmax_linear/biases/ApplyAdam"
  input: "^optimizer/Adam/update_softmax_linear/softmax_linear/ApplyAdam"
  attr {
    key: "T"
    value {
      type: DT_FLOAT
    }
  }
  attr {
    key: "_class"
    value {
      list {
        s: "loc:@conv1/biases"
      }
    }
  }
}
node {
  name: "optimizer/Adam/Assign_1"
  op: "Assign"
  input: "optimizer/beta2_power"
  input: "optimizer/Adam/mul_1"
  attr {
    key: "T"
    value {
      type: DT_FLOAT
    }
  }
  attr {
    key: "_class"
    value {
      list {
        s: "loc:@conv1/biases"
      }
    }
  }
  attr {
    key: "use_locking"
    value {
      b: false
    }
  }
  attr {
    key: "validate_shape"
    value {
      b: true
    }
  }
}
node {
  name: "optimizer/Adam/update"
  op: "NoOp"
  input: "^optimizer/Adam/Assign"
  input: "^optimizer/Adam/Assign_1"
  input: "^optimizer/Adam/update_conv1/biases/ApplyAdam"
  input: "^optimizer/Adam/update_conv1/weights/ApplyAdam"
  input: "^optimizer/Adam/update_conv2/biases/ApplyAdam"
  input: "^optimizer/Adam/update_conv2/weights/ApplyAdam"
  input: "^optimizer/Adam/update_local3/biases/ApplyAdam"
  input: "^optimizer/Adam/update_local3/weights/ApplyAdam"
  input: "^optimizer/Adam/update_local4/biases/ApplyAdam"
  input: "^optimizer/Adam/update_local4/weights/ApplyAdam"
  input: "^optimizer/Adam/update_softmax_linear/biases/ApplyAdam"
  input: "^optimizer/Adam/update_softmax_linear/softmax_linear/ApplyAdam"
}
node {
  name: "optimizer/Adam/value"
  op: "Const"
  input: "^optimizer/Adam/update"
  attr {
    key: "_class"
    value {
      list {
        s: "loc:@optimizer/global_step"
      }
    }
  }
  attr {
    key: "dtype"
    value {
      type: DT_INT32
    }
  }
  attr {
    key: "value"
    value {
      tensor {
        dtype: DT_INT32
        tensor_shape {
        }
        int_val: 1
      }
    }
  }
}
node {
  name: "optimizer/Adam"
  op: "AssignAdd"
  input: "optimizer/global_step"
  input: "optimizer/Adam/value"
  attr {
    key: "T"
    value {
      type: DT_INT32
    }
  }
  attr {
    key: "_class"
    value {
      list {
        s: "loc:@optimizer/global_step"
      }
    }
  }
  attr {
    key: "use_locking"
    value {
      b: false
    }
  }
}
node {
  name: "Reshape_2/shape"
  op: "Const"
  attr {
    key: "dtype"
    value {
      type: DT_INT32
    }
  }
  attr {
    key: "value"
    value {
      tensor {
        dtype: DT_INT32
        tensor_shape {
          dim {
            size: 1
          }
        }
        int_val: -1
      }
    }
  }
}
node {
  name: "Reshape_2"
  op: "Reshape"
  input: "labels_placeholder"
  input: "Reshape_2/shape"
  attr {
    key: "T"
    value {
      type: DT_INT64
    }
  }
  attr {
    key: "Tshape"
    value {
      type: DT_INT32
    }
  }
}
node {
  name: "accuracy/in_top_k/InTopKV2/k"
  op: "Const"
  attr {
    key: "dtype"
    value {
      type: DT_INT64
    }
  }
  attr {
    key: "value"
    value {
      tensor {
        dtype: DT_INT64
        tensor_shape {
        }
        int64_val: 1
      }
    }
  }
}
node {
  name: "accuracy/in_top_k/InTopKV2"
  op: "InTopKV2"
  input: "softmax_linear/softmax"
  input: "labels_placeholder"
  input: "accuracy/in_top_k/InTopKV2/k"
  attr {
    key: "T"
    value {
      type: DT_INT64
    }
  }
}
node {
  name: "accuracy/Cast"
  op: "Cast"
  input: "accuracy/in_top_k/InTopKV2"
  attr {
    key: "DstT"
    value {
      type: DT_HALF
    }
  }
  attr {
    key: "SrcT"
    value {
      type: DT_BOOL
    }
  }
}
node {
  name: "accuracy/Const"
  op: "Const"
  attr {
    key: "dtype"
    value {
      type: DT_INT32
    }
  }
  attr {
    key: "value"
    value {
      tensor {
        dtype: DT_INT32
        tensor_shape {
          dim {
            size: 1
          }
        }
        int_val: 0
      }
    }
  }
}
node {
  name: "accuracy/accuracy"
  op: "Mean"
  input: "accuracy/Cast"
  input: "accuracy/Const"
  attr {
    key: "T"
    value {
      type: DT_HALF
    }
  }
  attr {
    key: "Tidx"
    value {
      type: DT_INT32
    }
  }
  attr {
    key: "keep_dims"
    value {
      b: false
    }
  }
}
node {
  name: "accuracy/accuracy/accuracy/tags"
  op: "Const"
  attr {
    key: "dtype"
    value {
      type: DT_STRING
    }
  }
  attr {
    key: "value"
    value {
      tensor {
        dtype: DT_STRING
        tensor_shape {
        }
        string_val: "accuracy/accuracy/accuracy"
      }
    }
  }
}
node {
  name: "accuracy/accuracy/accuracy"
  op: "ScalarSummary"
  input: "accuracy/accuracy/accuracy/tags"
  input: "accuracy/accuracy"
  attr {
    key: "T"
    value {
      type: DT_HALF
    }
  }
}
node {
  name: "Merge/MergeSummary"
  op: "MergeSummary"
  input: "loss/loss/loss"
  input: "accuracy/accuracy/accuracy"
  attr {
    key: "N"
    value {
      i: 2
    }
  }
}
node {
  name: "save/Const"
  op: "Const"
  attr {
    key: "dtype"
    value {
      type: DT_STRING
    }
  }
  attr {
    key: "value"
    value {
      tensor {
        dtype: DT_STRING
        tensor_shape {
        }
        string_val: "model"
      }
    }
  }
}
node {
  name: "save/SaveV2/tensor_names"
  op: "Const"
  attr {
    key: "dtype"
    value {
      type: DT_STRING
    }
  }
  attr {
    key: "value"
    value {
      tensor {
        dtype: DT_STRING
        tensor_shape {
          dim {
            size: 33
          }
        }
        string_val: "conv1/biases"
        string_val: "conv1/biases/Adam"
        string_val: "conv1/biases/Adam_1"
        string_val: "conv1/weights"
        string_val: "conv1/weights/Adam"
        string_val: "conv1/weights/Adam_1"
        string_val: "conv2/biases"
        string_val: "conv2/biases/Adam"
        string_val: "conv2/biases/Adam_1"
        string_val: "conv2/weights"
        string_val: "conv2/weights/Adam"
        string_val: "conv2/weights/Adam_1"
        string_val: "local3/biases"
        string_val: "local3/biases/Adam"
        string_val: "local3/biases/Adam_1"
        string_val: "local3/weights"
        string_val: "local3/weights/Adam"
        string_val: "local3/weights/Adam_1"
        string_val: "local4/biases"
        string_val: "local4/biases/Adam"
        string_val: "local4/biases/Adam_1"
        string_val: "local4/weights"
        string_val: "local4/weights/Adam"
        string_val: "local4/weights/Adam_1"
        string_val: "optimizer/beta1_power"
        string_val: "optimizer/beta2_power"
        string_val: "optimizer/global_step"
        string_val: "softmax_linear/biases"
        string_val: "softmax_linear/biases/Adam"
        string_val: "softmax_linear/biases/Adam_1"
        string_val: "softmax_linear/softmax_linear"
        string_val: "softmax_linear/softmax_linear/Adam"
        string_val: "softmax_linear/softmax_linear/Adam_1"
      }
    }
  }
}
node {
  name: "save/SaveV2/shape_and_slices"
  op: "Const"
  attr {
    key: "dtype"
    value {
      type: DT_STRING
    }
  }
  attr {
    key: "value"
    value {
      tensor {
        dtype: DT_STRING
        tensor_shape {
          dim {
            size: 33
          }
        }
        string_val: ""
        string_val: ""
        string_val: ""
        string_val: ""
        string_val: ""
        string_val: ""
        string_val: ""
        string_val: ""
        string_val: ""
        string_val: ""
        string_val: ""
        string_val: ""
        string_val: ""
        string_val: ""
        string_val: ""
        string_val: ""
        string_val: ""
        string_val: ""
        string_val: ""
        string_val: ""
        string_val: ""
        string_val: ""
        string_val: ""
        string_val: ""
        string_val: ""
        string_val: ""
        string_val: ""
        string_val: ""
        string_val: ""
        string_val: ""
        string_val: ""
        string_val: ""
        string_val: ""
      }
    }
  }
}
node {
  name: "save/SaveV2"
  op: "SaveV2"
  input: "save/Const"
  input: "save/SaveV2/tensor_names"
  input: "save/SaveV2/shape_and_slices"
  input: "conv1/biases"
  input: "conv1/biases/Adam"
  input: "conv1/biases/Adam_1"
  input: "conv1/weights"
  input: "conv1/weights/Adam"
  input: "conv1/weights/Adam_1"
  input: "conv2/biases"
  input: "conv2/biases/Adam"
  input: "conv2/biases/Adam_1"
  input: "conv2/weights"
  input: "conv2/weights/Adam"
  input: "conv2/weights/Adam_1"
  input: "local3/biases"
  input: "local3/biases/Adam"
  input: "local3/biases/Adam_1"
  input: "local3/weights"
  input: "local3/weights/Adam"
  input: "local3/weights/Adam_1"
  input: "local4/biases"
  input: "local4/biases/Adam"
  input: "local4/biases/Adam_1"
  input: "local4/weights"
  input: "local4/weights/Adam"
  input: "local4/weights/Adam_1"
  input: "optimizer/beta1_power"
  input: "optimizer/beta2_power"
  input: "optimizer/global_step"
  input: "softmax_linear/biases"
  input: "softmax_linear/biases/Adam"
  input: "softmax_linear/biases/Adam_1"
  input: "softmax_linear/softmax_linear"
  input: "softmax_linear/softmax_linear/Adam"
  input: "softmax_linear/softmax_linear/Adam_1"
  attr {
    key: "dtypes"
    value {
      list {
        type: DT_FLOAT
        type: DT_FLOAT
        type: DT_FLOAT
        type: DT_FLOAT
        type: DT_FLOAT
        type: DT_FLOAT
        type: DT_FLOAT
        type: DT_FLOAT
        type: DT_FLOAT
        type: DT_FLOAT
        type: DT_FLOAT
        type: DT_FLOAT
        type: DT_FLOAT
        type: DT_FLOAT
        type: DT_FLOAT
        type: DT_FLOAT
        type: DT_FLOAT
        type: DT_FLOAT
        type: DT_FLOAT
        type: DT_FLOAT
        type: DT_FLOAT
        type: DT_FLOAT
        type: DT_FLOAT
        type: DT_FLOAT
        type: DT_FLOAT
        type: DT_FLOAT
        type: DT_INT32
        type: DT_FLOAT
        type: DT_FLOAT
        type: DT_FLOAT
        type: DT_FLOAT
        type: DT_FLOAT
        type: DT_FLOAT
      }
    }
  }
}
node {
  name: "save/control_dependency"
  op: "Identity"
  input: "save/Const"
  input: "^save/SaveV2"
  attr {
    key: "T"
    value {
      type: DT_STRING
    }
  }
  attr {
    key: "_class"
    value {
      list {
        s: "loc:@save/Const"
      }
    }
  }
}
node {
  name: "save/RestoreV2/tensor_names"
  op: "Const"
  device: "/device:CPU:0"
  attr {
    key: "dtype"
    value {
      type: DT_STRING
    }
  }
  attr {
    key: "value"
    value {
      tensor {
        dtype: DT_STRING
        tensor_shape {
          dim {
            size: 33
          }
        }
        string_val: "conv1/biases"
        string_val: "conv1/biases/Adam"
        string_val: "conv1/biases/Adam_1"
        string_val: "conv1/weights"
        string_val: "conv1/weights/Adam"
        string_val: "conv1/weights/Adam_1"
        string_val: "conv2/biases"
        string_val: "conv2/biases/Adam"
        string_val: "conv2/biases/Adam_1"
        string_val: "conv2/weights"
        string_val: "conv2/weights/Adam"
        string_val: "conv2/weights/Adam_1"
        string_val: "local3/biases"
        string_val: "local3/biases/Adam"
        string_val: "local3/biases/Adam_1"
        string_val: "local3/weights"
        string_val: "local3/weights/Adam"
        string_val: "local3/weights/Adam_1"
        string_val: "local4/biases"
        string_val: "local4/biases/Adam"
        string_val: "local4/biases/Adam_1"
        string_val: "local4/weights"
        string_val: "local4/weights/Adam"
        string_val: "local4/weights/Adam_1"
        string_val: "optimizer/beta1_power"
        string_val: "optimizer/beta2_power"
        string_val: "optimizer/global_step"
        string_val: "softmax_linear/biases"
        string_val: "softmax_linear/biases/Adam"
        string_val: "softmax_linear/biases/Adam_1"
        string_val: "softmax_linear/softmax_linear"
        string_val: "softmax_linear/softmax_linear/Adam"
        string_val: "softmax_linear/softmax_linear/Adam_1"
      }
    }
  }
}
node {
  name: "save/RestoreV2/shape_and_slices"
  op: "Const"
  device: "/device:CPU:0"
  attr {
    key: "dtype"
    value {
      type: DT_STRING
    }
  }
  attr {
    key: "value"
    value {
      tensor {
        dtype: DT_STRING
        tensor_shape {
          dim {
            size: 33
          }
        }
        string_val: ""
        string_val: ""
        string_val: ""
        string_val: ""
        string_val: ""
        string_val: ""
        string_val: ""
        string_val: ""
        string_val: ""
        string_val: ""
        string_val: ""
        string_val: ""
        string_val: ""
        string_val: ""
        string_val: ""
        string_val: ""
        string_val: ""
        string_val: ""
        string_val: ""
        string_val: ""
        string_val: ""
        string_val: ""
        string_val: ""
        string_val: ""
        string_val: ""
        string_val: ""
        string_val: ""
        string_val: ""
        string_val: ""
        string_val: ""
        string_val: ""
        string_val: ""
        string_val: ""
      }
    }
  }
}
node {
  name: "save/RestoreV2"
  op: "RestoreV2"
  input: "save/Const"
  input: "save/RestoreV2/tensor_names"
  input: "save/RestoreV2/shape_and_slices"
  device: "/device:CPU:0"
  attr {
    key: "dtypes"
    value {
      list {
        type: DT_FLOAT
        type: DT_FLOAT
        type: DT_FLOAT
        type: DT_FLOAT
        type: DT_FLOAT
        type: DT_FLOAT
        type: DT_FLOAT
        type: DT_FLOAT
        type: DT_FLOAT
        type: DT_FLOAT
        type: DT_FLOAT
        type: DT_FLOAT
        type: DT_FLOAT
        type: DT_FLOAT
        type: DT_FLOAT
        type: DT_FLOAT
        type: DT_FLOAT
        type: DT_FLOAT
        type: DT_FLOAT
        type: DT_FLOAT
        type: DT_FLOAT
        type: DT_FLOAT
        type: DT_FLOAT
        type: DT_FLOAT
        type: DT_FLOAT
        type: DT_FLOAT
        type: DT_INT32
        type: DT_FLOAT
        type: DT_FLOAT
        type: DT_FLOAT
        type: DT_FLOAT
        type: DT_FLOAT
        type: DT_FLOAT
      }
    }
  }
}
node {
  name: "save/Assign"
  op: "Assign"
  input: "conv1/biases"
  input: "save/RestoreV2"
  attr {
    key: "T"
    value {
      type: DT_FLOAT
    }
  }
  attr {
    key: "_class"
    value {
      list {
        s: "loc:@conv1/biases"
      }
    }
  }
  attr {
    key: "use_locking"
    value {
      b: true
    }
  }
  attr {
    key: "validate_shape"
    value {
      b: true
    }
  }
}
node {
  name: "save/Assign_1"
  op: "Assign"
  input: "conv1/biases/Adam"
  input: "save/RestoreV2:1"
  attr {
    key: "T"
    value {
      type: DT_FLOAT
    }
  }
  attr {
    key: "_class"
    value {
      list {
        s: "loc:@conv1/biases"
      }
    }
  }
  attr {
    key: "use_locking"
    value {
      b: true
    }
  }
  attr {
    key: "validate_shape"
    value {
      b: true
    }
  }
}
node {
  name: "save/Assign_2"
  op: "Assign"
  input: "conv1/biases/Adam_1"
  input: "save/RestoreV2:2"
  attr {
    key: "T"
    value {
      type: DT_FLOAT
    }
  }
  attr {
    key: "_class"
    value {
      list {
        s: "loc:@conv1/biases"
      }
    }
  }
  attr {
    key: "use_locking"
    value {
      b: true
    }
  }
  attr {
    key: "validate_shape"
    value {
      b: true
    }
  }
}
node {
  name: "save/Assign_3"
  op: "Assign"
  input: "conv1/weights"
  input: "save/RestoreV2:3"
  attr {
    key: "T"
    value {
      type: DT_FLOAT
    }
  }
  attr {
    key: "_class"
    value {
      list {
        s: "loc:@conv1/weights"
      }
    }
  }
  attr {
    key: "use_locking"
    value {
      b: true
    }
  }
  attr {
    key: "validate_shape"
    value {
      b: true
    }
  }
}
node {
  name: "save/Assign_4"
  op: "Assign"
  input: "conv1/weights/Adam"
  input: "save/RestoreV2:4"
  attr {
    key: "T"
    value {
      type: DT_FLOAT
    }
  }
  attr {
    key: "_class"
    value {
      list {
        s: "loc:@conv1/weights"
      }
    }
  }
  attr {
    key: "use_locking"
    value {
      b: true
    }
  }
  attr {
    key: "validate_shape"
    value {
      b: true
    }
  }
}
node {
  name: "save/Assign_5"
  op: "Assign"
  input: "conv1/weights/Adam_1"
  input: "save/RestoreV2:5"
  attr {
    key: "T"
    value {
      type: DT_FLOAT
    }
  }
  attr {
    key: "_class"
    value {
      list {
        s: "loc:@conv1/weights"
      }
    }
  }
  attr {
    key: "use_locking"
    value {
      b: true
    }
  }
  attr {
    key: "validate_shape"
    value {
      b: true
    }
  }
}
node {
  name: "save/Assign_6"
  op: "Assign"
  input: "conv2/biases"
  input: "save/RestoreV2:6"
  attr {
    key: "T"
    value {
      type: DT_FLOAT
    }
  }
  attr {
    key: "_class"
    value {
      list {
        s: "loc:@conv2/biases"
      }
    }
  }
  attr {
    key: "use_locking"
    value {
      b: true
    }
  }
  attr {
    key: "validate_shape"
    value {
      b: true
    }
  }
}
node {
  name: "save/Assign_7"
  op: "Assign"
  input: "conv2/biases/Adam"
  input: "save/RestoreV2:7"
  attr {
    key: "T"
    value {
      type: DT_FLOAT
    }
  }
  attr {
    key: "_class"
    value {
      list {
        s: "loc:@conv2/biases"
      }
    }
  }
  attr {
    key: "use_locking"
    value {
      b: true
    }
  }
  attr {
    key: "validate_shape"
    value {
      b: true
    }
  }
}
node {
  name: "save/Assign_8"
  op: "Assign"
  input: "conv2/biases/Adam_1"
  input: "save/RestoreV2:8"
  attr {
    key: "T"
    value {
      type: DT_FLOAT
    }
  }
  attr {
    key: "_class"
    value {
      list {
        s: "loc:@conv2/biases"
      }
    }
  }
  attr {
    key: "use_locking"
    value {
      b: true
    }
  }
  attr {
    key: "validate_shape"
    value {
      b: true
    }
  }
}
node {
  name: "save/Assign_9"
  op: "Assign"
  input: "conv2/weights"
  input: "save/RestoreV2:9"
  attr {
    key: "T"
    value {
      type: DT_FLOAT
    }
  }
  attr {
    key: "_class"
    value {
      list {
        s: "loc:@conv2/weights"
      }
    }
  }
  attr {
    key: "use_locking"
    value {
      b: true
    }
  }
  attr {
    key: "validate_shape"
    value {
      b: true
    }
  }
}
node {
  name: "save/Assign_10"
  op: "Assign"
  input: "conv2/weights/Adam"
  input: "save/RestoreV2:10"
  attr {
    key: "T"
    value {
      type: DT_FLOAT
    }
  }
  attr {
    key: "_class"
    value {
      list {
        s: "loc:@conv2/weights"
      }
    }
  }
  attr {
    key: "use_locking"
    value {
      b: true
    }
  }
  attr {
    key: "validate_shape"
    value {
      b: true
    }
  }
}
node {
  name: "save/Assign_11"
  op: "Assign"
  input: "conv2/weights/Adam_1"
  input: "save/RestoreV2:11"
  attr {
    key: "T"
    value {
      type: DT_FLOAT
    }
  }
  attr {
    key: "_class"
    value {
      list {
        s: "loc:@conv2/weights"
      }
    }
  }
  attr {
    key: "use_locking"
    value {
      b: true
    }
  }
  attr {
    key: "validate_shape"
    value {
      b: true
    }
  }
}
node {
  name: "save/Assign_12"
  op: "Assign"
  input: "local3/biases"
  input: "save/RestoreV2:12"
  attr {
    key: "T"
    value {
      type: DT_FLOAT
    }
  }
  attr {
    key: "_class"
    value {
      list {
        s: "loc:@local3/biases"
      }
    }
  }
  attr {
    key: "use_locking"
    value {
      b: true
    }
  }
  attr {
    key: "validate_shape"
    value {
      b: true
    }
  }
}
node {
  name: "save/Assign_13"
  op: "Assign"
  input: "local3/biases/Adam"
  input: "save/RestoreV2:13"
  attr {
    key: "T"
    value {
      type: DT_FLOAT
    }
  }
  attr {
    key: "_class"
    value {
      list {
        s: "loc:@local3/biases"
      }
    }
  }
  attr {
    key: "use_locking"
    value {
      b: true
    }
  }
  attr {
    key: "validate_shape"
    value {
      b: true
    }
  }
}
node {
  name: "save/Assign_14"
  op: "Assign"
  input: "local3/biases/Adam_1"
  input: "save/RestoreV2:14"
  attr {
    key: "T"
    value {
      type: DT_FLOAT
    }
  }
  attr {
    key: "_class"
    value {
      list {
        s: "loc:@local3/biases"
      }
    }
  }
  attr {
    key: "use_locking"
    value {
      b: true
    }
  }
  attr {
    key: "validate_shape"
    value {
      b: true
    }
  }
}
node {
  name: "save/Assign_15"
  op: "Assign"
  input: "local3/weights"
  input: "save/RestoreV2:15"
  attr {
    key: "T"
    value {
      type: DT_FLOAT
    }
  }
  attr {
    key: "_class"
    value {
      list {
        s: "loc:@local3/weights"
      }
    }
  }
  attr {
    key: "use_locking"
    value {
      b: true
    }
  }
  attr {
    key: "validate_shape"
    value {
      b: true
    }
  }
}
node {
  name: "save/Assign_16"
  op: "Assign"
  input: "local3/weights/Adam"
  input: "save/RestoreV2:16"
  attr {
    key: "T"
    value {
      type: DT_FLOAT
    }
  }
  attr {
    key: "_class"
    value {
      list {
        s: "loc:@local3/weights"
      }
    }
  }
  attr {
    key: "use_locking"
    value {
      b: true
    }
  }
  attr {
    key: "validate_shape"
    value {
      b: true
    }
  }
}
node {
  name: "save/Assign_17"
  op: "Assign"
  input: "local3/weights/Adam_1"
  input: "save/RestoreV2:17"
  attr {
    key: "T"
    value {
      type: DT_FLOAT
    }
  }
  attr {
    key: "_class"
    value {
      list {
        s: "loc:@local3/weights"
      }
    }
  }
  attr {
    key: "use_locking"
    value {
      b: true
    }
  }
  attr {
    key: "validate_shape"
    value {
      b: true
    }
  }
}
node {
  name: "save/Assign_18"
  op: "Assign"
  input: "local4/biases"
  input: "save/RestoreV2:18"
  attr {
    key: "T"
    value {
      type: DT_FLOAT
    }
  }
  attr {
    key: "_class"
    value {
      list {
        s: "loc:@local4/biases"
      }
    }
  }
  attr {
    key: "use_locking"
    value {
      b: true
    }
  }
  attr {
    key: "validate_shape"
    value {
      b: true
    }
  }
}
node {
  name: "save/Assign_19"
  op: "Assign"
  input: "local4/biases/Adam"
  input: "save/RestoreV2:19"
  attr {
    key: "T"
    value {
      type: DT_FLOAT
    }
  }
  attr {
    key: "_class"
    value {
      list {
        s: "loc:@local4/biases"
      }
    }
  }
  attr {
    key: "use_locking"
    value {
      b: true
    }
  }
  attr {
    key: "validate_shape"
    value {
      b: true
    }
  }
}
node {
  name: "save/Assign_20"
  op: "Assign"
  input: "local4/biases/Adam_1"
  input: "save/RestoreV2:20"
  attr {
    key: "T"
    value {
      type: DT_FLOAT
    }
  }
  attr {
    key: "_class"
    value {
      list {
        s: "loc:@local4/biases"
      }
    }
  }
  attr {
    key: "use_locking"
    value {
      b: true
    }
  }
  attr {
    key: "validate_shape"
    value {
      b: true
    }
  }
}
node {
  name: "save/Assign_21"
  op: "Assign"
  input: "local4/weights"
  input: "save/RestoreV2:21"
  attr {
    key: "T"
    value {
      type: DT_FLOAT
    }
  }
  attr {
    key: "_class"
    value {
      list {
        s: "loc:@local4/weights"
      }
    }
  }
  attr {
    key: "use_locking"
    value {
      b: true
    }
  }
  attr {
    key: "validate_shape"
    value {
      b: true
    }
  }
}
node {
  name: "save/Assign_22"
  op: "Assign"
  input: "local4/weights/Adam"
  input: "save/RestoreV2:22"
  attr {
    key: "T"
    value {
      type: DT_FLOAT
    }
  }
  attr {
    key: "_class"
    value {
      list {
        s: "loc:@local4/weights"
      }
    }
  }
  attr {
    key: "use_locking"
    value {
      b: true
    }
  }
  attr {
    key: "validate_shape"
    value {
      b: true
    }
  }
}
node {
  name: "save/Assign_23"
  op: "Assign"
  input: "local4/weights/Adam_1"
  input: "save/RestoreV2:23"
  attr {
    key: "T"
    value {
      type: DT_FLOAT
    }
  }
  attr {
    key: "_class"
    value {
      list {
        s: "loc:@local4/weights"
      }
    }
  }
  attr {
    key: "use_locking"
    value {
      b: true
    }
  }
  attr {
    key: "validate_shape"
    value {
      b: true
    }
  }
}
node {
  name: "save/Assign_24"
  op: "Assign"
  input: "optimizer/beta1_power"
  input: "save/RestoreV2:24"
  attr {
    key: "T"
    value {
      type: DT_FLOAT
    }
  }
  attr {
    key: "_class"
    value {
      list {
        s: "loc:@conv1/biases"
      }
    }
  }
  attr {
    key: "use_locking"
    value {
      b: true
    }
  }
  attr {
    key: "validate_shape"
    value {
      b: true
    }
  }
}
node {
  name: "save/Assign_25"
  op: "Assign"
  input: "optimizer/beta2_power"
  input: "save/RestoreV2:25"
  attr {
    key: "T"
    value {
      type: DT_FLOAT
    }
  }
  attr {
    key: "_class"
    value {
      list {
        s: "loc:@conv1/biases"
      }
    }
  }
  attr {
    key: "use_locking"
    value {
      b: true
    }
  }
  attr {
    key: "validate_shape"
    value {
      b: true
    }
  }
}
node {
  name: "save/Assign_26"
  op: "Assign"
  input: "optimizer/global_step"
  input: "save/RestoreV2:26"
  attr {
    key: "T"
    value {
      type: DT_INT32
    }
  }
  attr {
    key: "_class"
    value {
      list {
        s: "loc:@optimizer/global_step"
      }
    }
  }
  attr {
    key: "use_locking"
    value {
      b: true
    }
  }
  attr {
    key: "validate_shape"
    value {
      b: true
    }
  }
}
node {
  name: "save/Assign_27"
  op: "Assign"
  input: "softmax_linear/biases"
  input: "save/RestoreV2:27"
  attr {
    key: "T"
    value {
      type: DT_FLOAT
    }
  }
  attr {
    key: "_class"
    value {
      list {
        s: "loc:@softmax_linear/biases"
      }
    }
  }
  attr {
    key: "use_locking"
    value {
      b: true
    }
  }
  attr {
    key: "validate_shape"
    value {
      b: true
    }
  }
}
node {
  name: "save/Assign_28"
  op: "Assign"
  input: "softmax_linear/biases/Adam"
  input: "save/RestoreV2:28"
  attr {
    key: "T"
    value {
      type: DT_FLOAT
    }
  }
  attr {
    key: "_class"
    value {
      list {
        s: "loc:@softmax_linear/biases"
      }
    }
  }
  attr {
    key: "use_locking"
    value {
      b: true
    }
  }
  attr {
    key: "validate_shape"
    value {
      b: true
    }
  }
}
node {
  name: "save/Assign_29"
  op: "Assign"
  input: "softmax_linear/biases/Adam_1"
  input: "save/RestoreV2:29"
  attr {
    key: "T"
    value {
      type: DT_FLOAT
    }
  }
  attr {
    key: "_class"
    value {
      list {
        s: "loc:@softmax_linear/biases"
      }
    }
  }
  attr {
    key: "use_locking"
    value {
      b: true
    }
  }
  attr {
    key: "validate_shape"
    value {
      b: true
    }
  }
}
node {
  name: "save/Assign_30"
  op: "Assign"
  input: "softmax_linear/softmax_linear"
  input: "save/RestoreV2:30"
  attr {
    key: "T"
    value {
      type: DT_FLOAT
    }
  }
  attr {
    key: "_class"
    value {
      list {
        s: "loc:@softmax_linear/softmax_linear"
      }
    }
  }
  attr {
    key: "use_locking"
    value {
      b: true
    }
  }
  attr {
    key: "validate_shape"
    value {
      b: true
    }
  }
}
node {
  name: "save/Assign_31"
  op: "Assign"
  input: "softmax_linear/softmax_linear/Adam"
  input: "save/RestoreV2:31"
  attr {
    key: "T"
    value {
      type: DT_FLOAT
    }
  }
  attr {
    key: "_class"
    value {
      list {
        s: "loc:@softmax_linear/softmax_linear"
      }
    }
  }
  attr {
    key: "use_locking"
    value {
      b: true
    }
  }
  attr {
    key: "validate_shape"
    value {
      b: true
    }
  }
}
node {
  name: "save/Assign_32"
  op: "Assign"
  input: "softmax_linear/softmax_linear/Adam_1"
  input: "save/RestoreV2:32"
  attr {
    key: "T"
    value {
      type: DT_FLOAT
    }
  }
  attr {
    key: "_class"
    value {
      list {
        s: "loc:@softmax_linear/softmax_linear"
      }
    }
  }
  attr {
    key: "use_locking"
    value {
      b: true
    }
  }
  attr {
    key: "validate_shape"
    value {
      b: true
    }
  }
}
node {
  name: "save/restore_all"
  op: "NoOp"
  input: "^save/Assign"
  input: "^save/Assign_1"
  input: "^save/Assign_10"
  input: "^save/Assign_11"
  input: "^save/Assign_12"
  input: "^save/Assign_13"
  input: "^save/Assign_14"
  input: "^save/Assign_15"
  input: "^save/Assign_16"
  input: "^save/Assign_17"
  input: "^save/Assign_18"
  input: "^save/Assign_19"
  input: "^save/Assign_2"
  input: "^save/Assign_20"
  input: "^save/Assign_21"
  input: "^save/Assign_22"
  input: "^save/Assign_23"
  input: "^save/Assign_24"
  input: "^save/Assign_25"
  input: "^save/Assign_26"
  input: "^save/Assign_27"
  input: "^save/Assign_28"
  input: "^save/Assign_29"
  input: "^save/Assign_3"
  input: "^save/Assign_30"
  input: "^save/Assign_31"
  input: "^save/Assign_32"
  input: "^save/Assign_4"
  input: "^save/Assign_5"
  input: "^save/Assign_6"
  input: "^save/Assign_7"
  input: "^save/Assign_8"
  input: "^save/Assign_9"
}
node {
  name: "init"
  op: "NoOp"
  input: "^conv1/biases/Adam/Assign"
  input: "^conv1/biases/Adam_1/Assign"
  input: "^conv1/biases/Assign"
  input: "^conv1/weights/Adam/Assign"
  input: "^conv1/weights/Adam_1/Assign"
  input: "^conv1/weights/Assign"
  input: "^conv2/biases/Adam/Assign"
  input: "^conv2/biases/Adam_1/Assign"
  input: "^conv2/biases/Assign"
  input: "^conv2/weights/Adam/Assign"
  input: "^conv2/weights/Adam_1/Assign"
  input: "^conv2/weights/Assign"
  input: "^local3/biases/Adam/Assign"
  input: "^local3/biases/Adam_1/Assign"
  input: "^local3/biases/Assign"
  input: "^local3/weights/Adam/Assign"
  input: "^local3/weights/Adam_1/Assign"
  input: "^local3/weights/Assign"
  input: "^local4/biases/Adam/Assign"
  input: "^local4/biases/Adam_1/Assign"
  input: "^local4/biases/Assign"
  input: "^local4/weights/Adam/Assign"
  input: "^local4/weights/Adam_1/Assign"
  input: "^local4/weights/Assign"
  input: "^optimizer/beta1_power/Assign"
  input: "^optimizer/beta2_power/Assign"
  input: "^optimizer/global_step/Assign"
  input: "^softmax_linear/biases/Adam/Assign"
  input: "^softmax_linear/biases/Adam_1/Assign"
  input: "^softmax_linear/biases/Assign"
  input: "^softmax_linear/softmax_linear/Adam/Assign"
  input: "^softmax_linear/softmax_linear/Adam_1/Assign"
  input: "^softmax_linear/softmax_linear/Assign"
}
versions {
  producer: 26
}
